node {
  name: "global_step/Initializer/zeros"
  op: "Const"
  attr {
    key: "_class"
    value {
      list {
        s: "loc:@global_step"
      }
    }
  }
  attr {
    key: "_output_shapes"
    value {
      list {
        shape {
        }
      }
    }
  }
  attr {
    key: "dtype"
    value {
      type: DT_INT64
    }
  }
  attr {
    key: "value"
    value {
      tensor {
        dtype: DT_INT64
        tensor_shape {
        }
        int64_val: 0
      }
    }
  }
}
node {
  name: "global_step"
  op: "VariableV2"
  attr {
    key: "_class"
    value {
      list {
        s: "loc:@global_step"
      }
    }
  }
  attr {
    key: "_output_shapes"
    value {
      list {
        shape {
        }
      }
    }
  }
  attr {
    key: "container"
    value {
      s: ""
    }
  }
  attr {
    key: "dtype"
    value {
      type: DT_INT64
    }
  }
  attr {
    key: "shape"
    value {
      shape {
      }
    }
  }
  attr {
    key: "shared_name"
    value {
      s: ""
    }
  }
}
node {
  name: "global_step/Assign"
  op: "Assign"
  input: "global_step"
  input: "global_step/Initializer/zeros"
  attr {
    key: "T"
    value {
      type: DT_INT64
    }
  }
  attr {
    key: "_class"
    value {
      list {
        s: "loc:@global_step"
      }
    }
  }
  attr {
    key: "_output_shapes"
    value {
      list {
        shape {
        }
      }
    }
  }
  attr {
    key: "use_locking"
    value {
      b: true
    }
  }
  attr {
    key: "validate_shape"
    value {
      b: true
    }
  }
}
node {
  name: "global_step/read"
  op: "Identity"
  input: "global_step"
  attr {
    key: "T"
    value {
      type: DT_INT64
    }
  }
  attr {
    key: "_class"
    value {
      list {
        s: "loc:@global_step"
      }
    }
  }
  attr {
    key: "_output_shapes"
    value {
      list {
        shape {
        }
      }
    }
  }
}
node {
  name: "global_step/IsVariableInitialized"
  op: "IsVariableInitialized"
  input: "global_step"
  attr {
    key: "_class"
    value {
      list {
        s: "loc:@global_step"
      }
    }
  }
  attr {
    key: "_output_shapes"
    value {
      list {
        shape {
        }
      }
    }
  }
  attr {
    key: "dtype"
    value {
      type: DT_INT64
    }
  }
}
node {
  name: "global_step/cond/Switch"
  op: "Switch"
  input: "global_step/IsVariableInitialized"
  input: "global_step/IsVariableInitialized"
  attr {
    key: "T"
    value {
      type: DT_BOOL
    }
  }
  attr {
    key: "_output_shapes"
    value {
      list {
        shape {
        }
        shape {
        }
      }
    }
  }
}
node {
  name: "global_step/cond/switch_t"
  op: "Identity"
  input: "global_step/cond/Switch:1"
  attr {
    key: "T"
    value {
      type: DT_BOOL
    }
  }
  attr {
    key: "_output_shapes"
    value {
      list {
        shape {
        }
      }
    }
  }
}
node {
  name: "global_step/cond/switch_f"
  op: "Identity"
  input: "global_step/cond/Switch"
  attr {
    key: "T"
    value {
      type: DT_BOOL
    }
  }
  attr {
    key: "_output_shapes"
    value {
      list {
        shape {
        }
      }
    }
  }
}
node {
  name: "global_step/cond/pred_id"
  op: "Identity"
  input: "global_step/IsVariableInitialized"
  attr {
    key: "T"
    value {
      type: DT_BOOL
    }
  }
  attr {
    key: "_output_shapes"
    value {
      list {
        shape {
        }
      }
    }
  }
}
node {
  name: "global_step/cond/read"
  op: "Identity"
  input: "global_step/cond/read/Switch:1"
  attr {
    key: "T"
    value {
      type: DT_INT64
    }
  }
  attr {
    key: "_output_shapes"
    value {
      list {
        shape {
        }
      }
    }
  }
}
node {
  name: "global_step/cond/read/Switch"
  op: "RefSwitch"
  input: "global_step"
  input: "global_step/cond/pred_id"
  attr {
    key: "T"
    value {
      type: DT_INT64
    }
  }
  attr {
    key: "_class"
    value {
      list {
        s: "loc:@global_step"
      }
    }
  }
  attr {
    key: "_output_shapes"
    value {
      list {
        shape {
        }
        shape {
        }
      }
    }
  }
}
node {
  name: "global_step/cond/Switch_1"
  op: "Switch"
  input: "global_step/Initializer/zeros"
  input: "global_step/cond/pred_id"
  attr {
    key: "T"
    value {
      type: DT_INT64
    }
  }
  attr {
    key: "_class"
    value {
      list {
        s: "loc:@global_step"
      }
    }
  }
  attr {
    key: "_output_shapes"
    value {
      list {
        shape {
        }
        shape {
        }
      }
    }
  }
}
node {
  name: "global_step/cond/Merge"
  op: "Merge"
  input: "global_step/cond/Switch_1"
  input: "global_step/cond/read"
  attr {
    key: "N"
    value {
      i: 2
    }
  }
  attr {
    key: "T"
    value {
      type: DT_INT64
    }
  }
  attr {
    key: "_output_shapes"
    value {
      list {
        shape {
        }
        shape {
        }
      }
    }
  }
}
node {
  name: "global_step/add/y"
  op: "Const"
  attr {
    key: "_output_shapes"
    value {
      list {
        shape {
        }
      }
    }
  }
  attr {
    key: "dtype"
    value {
      type: DT_INT64
    }
  }
  attr {
    key: "value"
    value {
      tensor {
        dtype: DT_INT64
        tensor_shape {
        }
        int64_val: 0
      }
    }
  }
}
node {
  name: "global_step/add"
  op: "Add"
  input: "global_step/cond/Merge"
  input: "global_step/add/y"
  attr {
    key: "T"
    value {
      type: DT_INT64
    }
  }
  attr {
    key: "_output_shapes"
    value {
      list {
        shape {
        }
      }
    }
  }
}
node {
  name: "Log1p/x"
  op: "Const"
  device: "/device:CPU:0"
  attr {
    key: "_output_shapes"
    value {
      list {
        shape {
          dim {
            size: 404
          }
          dim {
            size: 13
          }
        }
      }
    }
  }
  attr {
    key: "dtype"
    value {
      type: DT_DOUBLE
    }
  }
  attr {
    key: "value"
    value {
      tensor {
        dtype: DT_DOUBLE
        tensor_shape {
          dim {
            size: 404
          }
          dim {
            size: 13
          }
        }
        tensor_content: "…"
      }
    }
  }
}
node {
  name: "Log1p"
  op: "Log1p"
  input: "Log1p/x"
  device: "/device:CPU:0"
  attr {
    key: "T"
    value {
      type: DT_DOUBLE
    }
  }
  attr {
    key: "_output_shapes"
    value {
      list {
        shape {
          dim {
            size: 404
          }
          dim {
            size: 13
          }
        }
      }
    }
  }
}
node {
  name: "Log1p_1/x"
  op: "Const"
  device: "/device:CPU:0"
  attr {
    key: "_output_shapes"
    value {
      list {
        shape {
          dim {
            size: 404
          }
        }
      }
    }
  }
  attr {
    key: "dtype"
    value {
      type: DT_DOUBLE
    }
  }
  attr {
    key: "value"
    value {
      tensor {
        dtype: DT_DOUBLE
        tensor_shape {
          dim {
            size: 404
          }
        }
        tensor_content: "…"
      }
    }
  }
}
node {
  name: "Log1p_1"
  op: "Log1p"
  input: "Log1p_1/x"
  device: "/device:CPU:0"
  attr {
    key: "T"
    value {
      type: DT_DOUBLE
    }
  }
  attr {
    key: "_output_shapes"
    value {
      list {
        shape {
          dim {
            size: 404
          }
        }
      }
    }
  }
}
node {
  name: "TensorSliceDataset"
  op: "TensorSliceDataset"
  input: "Log1p"
  input: "Log1p_1"
  device: "/device:CPU:0"
  attr {
    key: "Toutput_types"
    value {
      list {
        type: DT_DOUBLE
        type: DT_DOUBLE
      }
    }
  }
  attr {
    key: "_output_shapes"
    value {
      list {
        shape {
        }
      }
    }
  }
  attr {
    key: "output_shapes"
    value {
      list {
        shape {
          dim {
            size: 13
          }
        }
        shape {
        }
      }
    }
  }
}
node {
  name: "buffer_size"
  op: "Const"
  device: "/device:CPU:0"
  attr {
    key: "_output_shapes"
    value {
      list {
        shape {
        }
      }
    }
  }
  attr {
    key: "dtype"
    value {
      type: DT_INT64
    }
  }
  attr {
    key: "value"
    value {
      tensor {
        dtype: DT_INT64
        tensor_shape {
        }
        int64_val: 320
      }
    }
  }
}
node {
  name: "seed"
  op: "Const"
  device: "/device:CPU:0"
  attr {
    key: "_output_shapes"
    value {
      list {
        shape {
        }
      }
    }
  }
  attr {
    key: "dtype"
    value {
      type: DT_INT64
    }
  }
  attr {
    key: "value"
    value {
      tensor {
        dtype: DT_INT64
        tensor_shape {
        }
        int64_val: 87654321
      }
    }
  }
}
node {
  name: "seed2/Const"
  op: "Const"
  device: "/device:CPU:0"
  attr {
    key: "_output_shapes"
    value {
      list {
        shape {
        }
      }
    }
  }
  attr {
    key: "dtype"
    value {
      type: DT_INT64
    }
  }
  attr {
    key: "value"
    value {
      tensor {
        dtype: DT_INT64
        tensor_shape {
        }
        int64_val: 42
      }
    }
  }
}
node {
  name: "seed2/Equal/y"
  op: "Const"
  device: "/device:CPU:0"
  attr {
    key: "_output_shapes"
    value {
      list {
        shape {
        }
      }
    }
  }
  attr {
    key: "dtype"
    value {
      type: DT_INT64
    }
  }
  attr {
    key: "value"
    value {
      tensor {
        dtype: DT_INT64
        tensor_shape {
        }
        int64_val: 0
      }
    }
  }
}
node {
  name: "seed2/Equal"
  op: "Equal"
  input: "seed"
  input: "seed2/Equal/y"
  device: "/device:CPU:0"
  attr {
    key: "T"
    value {
      type: DT_INT64
    }
  }
  attr {
    key: "_output_shapes"
    value {
      list {
        shape {
        }
      }
    }
  }
}
node {
  name: "seed2/Equal_1/y"
  op: "Const"
  device: "/device:CPU:0"
  attr {
    key: "_output_shapes"
    value {
      list {
        shape {
        }
      }
    }
  }
  attr {
    key: "dtype"
    value {
      type: DT_INT64
    }
  }
  attr {
    key: "value"
    value {
      tensor {
        dtype: DT_INT64
        tensor_shape {
        }
        int64_val: 0
      }
    }
  }
}
node {
  name: "seed2/Equal_1"
  op: "Equal"
  input: "seed2/Const"
  input: "seed2/Equal_1/y"
  device: "/device:CPU:0"
  attr {
    key: "T"
    value {
      type: DT_INT64
    }
  }
  attr {
    key: "_output_shapes"
    value {
      list {
        shape {
        }
      }
    }
  }
}
node {
  name: "seed2/LogicalAnd"
  op: "LogicalAnd"
  input: "seed2/Equal"
  input: "seed2/Equal_1"
  device: "/device:CPU:0"
  attr {
    key: "_output_shapes"
    value {
      list {
        shape {
        }
      }
    }
  }
}
node {
  name: "seed2/Const_1"
  op: "Const"
  device: "/device:CPU:0"
  attr {
    key: "_output_shapes"
    value {
      list {
        shape {
        }
      }
    }
  }
  attr {
    key: "dtype"
    value {
      type: DT_INT64
    }
  }
  attr {
    key: "value"
    value {
      tensor {
        dtype: DT_INT64
        tensor_shape {
        }
        int64_val: 2147483647
      }
    }
  }
}
node {
  name: "seed2"
  op: "Select"
  input: "seed2/LogicalAnd"
  input: "seed2/Const_1"
  input: "seed2/Const"
  device: "/device:CPU:0"
  attr {
    key: "T"
    value {
      type: DT_INT64
    }
  }
  attr {
    key: "_output_shapes"
    value {
      list {
        shape {
        }
      }
    }
  }
}
node {
  name: "ShuffleDataset"
  op: "ShuffleDataset"
  input: "TensorSliceDataset"
  input: "buffer_size"
  input: "seed"
  input: "seed2"
  device: "/device:CPU:0"
  attr {
    key: "_output_shapes"
    value {
      list {
        shape {
        }
      }
    }
  }
  attr {
    key: "output_shapes"
    value {
      list {
        shape {
          dim {
            size: 13
          }
        }
        shape {
        }
      }
    }
  }
  attr {
    key: "output_types"
    value {
      list {
        type: DT_DOUBLE
        type: DT_DOUBLE
      }
    }
  }
  attr {
    key: "reshuffle_each_iteration"
    value {
      b: true
    }
  }
}
node {
  name: "count"
  op: "Const"
  device: "/device:CPU:0"
  attr {
    key: "_output_shapes"
    value {
      list {
        shape {
        }
      }
    }
  }
  attr {
    key: "dtype"
    value {
      type: DT_INT64
    }
  }
  attr {
    key: "value"
    value {
      tensor {
        dtype: DT_INT64
        tensor_shape {
        }
        int64_val: -1
      }
    }
  }
}
node {
  name: "RepeatDataset"
  op: "RepeatDataset"
  input: "ShuffleDataset"
  input: "count"
  device: "/device:CPU:0"
  attr {
    key: "_output_shapes"
    value {
      list {
        shape {
        }
      }
    }
  }
  attr {
    key: "output_shapes"
    value {
      list {
        shape {
          dim {
            size: 13
          }
        }
        shape {
        }
      }
    }
  }
  attr {
    key: "output_types"
    value {
      list {
        type: DT_DOUBLE
        type: DT_DOUBLE
      }
    }
  }
}
node {
  name: "batch_size"
  op: "Const"
  device: "/device:CPU:0"
  attr {
    key: "_output_shapes"
    value {
      list {
        shape {
        }
      }
    }
  }
  attr {
    key: "dtype"
    value {
      type: DT_INT64
    }
  }
  attr {
    key: "value"
    value {
      tensor {
        dtype: DT_INT64
        tensor_shape {
        }
        int64_val: 32
      }
    }
  }
}
node {
  name: "drop_remainder"
  op: "Const"
  device: "/device:CPU:0"
  attr {
    key: "_output_shapes"
    value {
      list {
        shape {
        }
      }
    }
  }
  attr {
    key: "dtype"
    value {
      type: DT_BOOL
    }
  }
  attr {
    key: "value"
    value {
      tensor {
        dtype: DT_BOOL
        tensor_shape {
        }
        bool_val: false
      }
    }
  }
}
node {
  name: "BatchDatasetV2"
  op: "BatchDatasetV2"
  input: "RepeatDataset"
  input: "batch_size"
  input: "drop_remainder"
  device: "/device:CPU:0"
  attr {
    key: "_output_shapes"
    value {
      list {
        shape {
        }
      }
    }
  }
  attr {
    key: "output_shapes"
    value {
      list {
        shape {
          dim {
            size: -1
          }
          dim {
            size: 13
          }
        }
        shape {
          dim {
            size: -1
          }
        }
      }
    }
  }
  attr {
    key: "output_types"
    value {
      list {
        type: DT_DOUBLE
        type: DT_DOUBLE
      }
    }
  }
  attr {
    key: "parallel_copy"
    value {
      b: false
    }
  }
}
node {
  name: "OneShotIterator"
  op: "OneShotIterator"
  device: "/device:CPU:0"
  attr {
    key: "_output_shapes"
    value {
      list {
        shape {
        }
      }
    }
  }
  attr {
    key: "container"
    value {
      s: ""
    }
  }
  attr {
    key: "dataset_factory"
    value {
      func {
        name: "_make_dataset_aDBaNS2H9to"
      }
    }
  }
  attr {
    key: "output_shapes"
    value {
      list {
        shape {
          dim {
            size: -1
          }
          dim {
            size: 13
          }
        }
        shape {
          dim {
            size: -1
          }
        }
      }
    }
  }
  attr {
    key: "output_types"
    value {
      list {
        type: DT_DOUBLE
        type: DT_DOUBLE
      }
    }
  }
  attr {
    key: "shared_name"
    value {
      s: ""
    }
  }
}
node {
  name: "IteratorToStringHandle"
  op: "IteratorToStringHandle"
  input: "OneShotIterator"
  device: "/device:CPU:0"
  attr {
    key: "_output_shapes"
    value {
      list {
        shape {
        }
      }
    }
  }
}
node {
  name: "IteratorGetNext"
  op: "IteratorGetNext"
  input: "OneShotIterator"
  device: "/device:CPU:0"
  attr {
    key: "_output_shapes"
    value {
      list {
        shape {
          dim {
            size: -1
          }
          dim {
            size: 13
          }
        }
        shape {
          dim {
            size: -1
          }
        }
      }
    }
  }
  attr {
    key: "output_shapes"
    value {
      list {
        shape {
          dim {
            size: -1
          }
          dim {
            size: 13
          }
        }
        shape {
          dim {
            size: -1
          }
        }
      }
    }
  }
  attr {
    key: "output_types"
    value {
      list {
        type: DT_DOUBLE
        type: DT_DOUBLE
      }
    }
  }
}
node {
  name: "adanet/iteration_0/step/Initializer/zeros"
  op: "Const"
  attr {
    key: "_class"
    value {
      list {
        s: "loc:@adanet/iteration_0/step"
      }
    }
  }
  attr {
    key: "_output_shapes"
    value {
      list {
        shape {
        }
      }
    }
  }
  attr {
    key: "dtype"
    value {
      type: DT_INT64
    }
  }
  attr {
    key: "value"
    value {
      tensor {
        dtype: DT_INT64
        tensor_shape {
        }
        int64_val: 0
      }
    }
  }
}
node {
  name: "adanet/iteration_0/step"
  op: "VariableV2"
  attr {
    key: "_class"
    value {
      list {
        s: "loc:@adanet/iteration_0/step"
      }
    }
  }
  attr {
    key: "_output_shapes"
    value {
      list {
        shape {
        }
      }
    }
  }
  attr {
    key: "container"
    value {
      s: ""
    }
  }
  attr {
    key: "dtype"
    value {
      type: DT_INT64
    }
  }
  attr {
    key: "shape"
    value {
      shape {
      }
    }
  }
  attr {
    key: "shared_name"
    value {
      s: ""
    }
  }
}
node {
  name: "adanet/iteration_0/step/Assign"
  op: "Assign"
  input: "adanet/iteration_0/step"
  input: "adanet/iteration_0/step/Initializer/zeros"
  attr {
    key: "T"
    value {
      type: DT_INT64
    }
  }
  attr {
    key: "_class"
    value {
      list {
        s: "loc:@adanet/iteration_0/step"
      }
    }
  }
  attr {
    key: "_output_shapes"
    value {
      list {
        shape {
        }
      }
    }
  }
  attr {
    key: "use_locking"
    value {
      b: true
    }
  }
  attr {
    key: "validate_shape"
    value {
      b: true
    }
  }
}
node {
  name: "adanet/iteration_0/step/read"
  op: "Identity"
  input: "adanet/iteration_0/step"
  attr {
    key: "T"
    value {
      type: DT_INT64
    }
  }
  attr {
    key: "_class"
    value {
      list {
        s: "loc:@adanet/iteration_0/step"
      }
    }
  }
  attr {
    key: "_output_shapes"
    value {
      list {
        shape {
        }
      }
    }
  }
}
node {
  name: "adanet/iteration_0/subnetwork_t0_dnn3/model_fn/dnn/input_from_feature_columns/input_layer/x/Cast"
  op: "Cast"
  input: "IteratorGetNext"
  attr {
    key: "DstT"
    value {
      type: DT_FLOAT
    }
  }
  attr {
    key: "SrcT"
    value {
      type: DT_DOUBLE
    }
  }
  attr {
    key: "Truncate"
    value {
      b: false
    }
  }
  attr {
    key: "_output_shapes"
    value {
      list {
        shape {
          dim {
            size: -1
          }
          dim {
            size: 13
          }
        }
      }
    }
  }
}
node {
  name: "adanet/iteration_0/subnetwork_t0_dnn3/model_fn/dnn/input_from_feature_columns/input_layer/x/Shape"
  op: "Shape"
  input: "adanet/iteration_0/subnetwork_t0_dnn3/model_fn/dnn/input_from_feature_columns/input_layer/x/Cast"
  attr {
    key: "T"
    value {
      type: DT_FLOAT
    }
  }
  attr {
    key: "_output_shapes"
    value {
      list {
        shape {
          dim {
            size: 2
          }
        }
      }
    }
  }
  attr {
    key: "out_type"
    value {
      type: DT_INT32
    }
  }
}
node {
  name: "adanet/iteration_0/subnetwork_t0_dnn3/model_fn/dnn/input_from_feature_columns/input_layer/x/strided_slice/stack"
  op: "Const"
  attr {
    key: "_output_shapes"
    value {
      list {
        shape {
          dim {
            size: 1
          }
        }
      }
    }
  }
  attr {
    key: "dtype"
    value {
      type: DT_INT32
    }
  }
  attr {
    key: "value"
    value {
      tensor {
        dtype: DT_INT32
        tensor_shape {
          dim {
            size: 1
          }
        }
        int_val: 0
      }
    }
  }
}
node {
  name: "adanet/iteration_0/subnetwork_t0_dnn3/model_fn/dnn/input_from_feature_columns/input_layer/x/strided_slice/stack_1"
  op: "Const"
  attr {
    key: "_output_shapes"
    value {
      list {
        shape {
          dim {
            size: 1
          }
        }
      }
    }
  }
  attr {
    key: "dtype"
    value {
      type: DT_INT32
    }
  }
  attr {
    key: "value"
    value {
      tensor {
        dtype: DT_INT32
        tensor_shape {
          dim {
            size: 1
          }
        }
        int_val: 1
      }
    }
  }
}
node {
  name: "adanet/iteration_0/subnetwork_t0_dnn3/model_fn/dnn/input_from_feature_columns/input_layer/x/strided_slice/stack_2"
  op: "Const"
  attr {
    key: "_output_shapes"
    value {
      list {
        shape {
          dim {
            size: 1
          }
        }
      }
    }
  }
  attr {
    key: "dtype"
    value {
      type: DT_INT32
    }
  }
  attr {
    key: "value"
    value {
      tensor {
        dtype: DT_INT32
        tensor_shape {
          dim {
            size: 1
          }
        }
        int_val: 1
      }
    }
  }
}
node {
  name: "adanet/iteration_0/subnetwork_t0_dnn3/model_fn/dnn/input_from_feature_columns/input_layer/x/strided_slice"
  op: "StridedSlice"
  input: "adanet/iteration_0/subnetwork_t0_dnn3/model_fn/dnn/input_from_feature_columns/input_layer/x/Shape"
  input: "adanet/iteration_0/subnetwork_t0_dnn3/model_fn/dnn/input_from_feature_columns/input_layer/x/strided_slice/stack"
  input: "adanet/iteration_0/subnetwork_t0_dnn3/model_fn/dnn/input_from_feature_columns/input_layer/x/strided_slice/stack_1"
  input: "adanet/iteration_0/subnetwork_t0_dnn3/model_fn/dnn/input_from_feature_columns/input_layer/x/strided_slice/stack_2"
  attr {
    key: "Index"
    value {
      type: DT_INT32
    }
  }
  attr {
    key: "T"
    value {
      type: DT_INT32
    }
  }
  attr {
    key: "_output_shapes"
    value {
      list {
        shape {
        }
      }
    }
  }
  attr {
    key: "begin_mask"
    value {
      i: 0
    }
  }
  attr {
    key: "ellipsis_mask"
    value {
      i: 0
    }
  }
  attr {
    key: "end_mask"
    value {
      i: 0
    }
  }
  attr {
    key: "new_axis_mask"
    value {
      i: 0
    }
  }
  attr {
    key: "shrink_axis_mask"
    value {
      i: 1
    }
  }
}
node {
  name: "adanet/iteration_0/subnetwork_t0_dnn3/model_fn/dnn/input_from_feature_columns/input_layer/x/Reshape/shape/1"
  op: "Const"
  attr {
    key: "_output_shapes"
    value {
      list {
        shape {
        }
      }
    }
  }
  attr {
    key: "dtype"
    value {
      type: DT_INT32
    }
  }
  attr {
    key: "value"
    value {
      tensor {
        dtype: DT_INT32
        tensor_shape {
        }
        int_val: 13
      }
    }
  }
}
node {
  name: "adanet/iteration_0/subnetwork_t0_dnn3/model_fn/dnn/input_from_feature_columns/input_layer/x/Reshape/shape"
  op: "Pack"
  input: "adanet/iteration_0/subnetwork_t0_dnn3/model_fn/dnn/input_from_feature_columns/input_layer/x/strided_slice"
  input: "adanet/iteration_0/subnetwork_t0_dnn3/model_fn/dnn/input_from_feature_columns/input_layer/x/Reshape/shape/1"
  attr {
    key: "N"
    value {
      i: 2
    }
  }
  attr {
    key: "T"
    value {
      type: DT_INT32
    }
  }
  attr {
    key: "_output_shapes"
    value {
      list {
        shape {
          dim {
            size: 2
          }
        }
      }
    }
  }
  attr {
    key: "axis"
    value {
      i: 0
    }
  }
}
node {
  name: "adanet/iteration_0/subnetwork_t0_dnn3/model_fn/dnn/input_from_feature_columns/input_layer/x/Reshape"
  op: "Reshape"
  input: "adanet/iteration_0/subnetwork_t0_dnn3/model_fn/dnn/input_from_feature_columns/input_layer/x/Cast"
  input: "adanet/iteration_0/subnetwork_t0_dnn3/model_fn/dnn/input_from_feature_columns/input_layer/x/Reshape/shape"
  attr {
    key: "T"
    value {
      type: DT_FLOAT
    }
  }
  attr {
    key: "Tshape"
    value {
      type: DT_INT32
    }
  }
  attr {
    key: "_output_shapes"
    value {
      list {
        shape {
          dim {
            size: -1
          }
          dim {
            size: 13
          }
        }
      }
    }
  }
}
node {
  name: "adanet/iteration_0/subnetwork_t0_dnn3/model_fn/dnn/input_from_feature_columns/input_layer/concat/concat_dim"
  op: "Const"
  attr {
    key: "_output_shapes"
    value {
      list {
        shape {
        }
      }
    }
  }
  attr {
    key: "dtype"
    value {
      type: DT_INT32
    }
  }
  attr {
    key: "value"
    value {
      tensor {
        dtype: DT_INT32
        tensor_shape {
        }
        int_val: -1
      }
    }
  }
}
node {
  name: "adanet/iteration_0/subnetwork_t0_dnn3/model_fn/dnn/input_from_feature_columns/input_layer/concat"
  op: "Identity"
  input: "adanet/iteration_0/subnetwork_t0_dnn3/model_fn/dnn/input_from_feature_columns/input_layer/x/Reshape"
  attr {
    key: "T"
    value {
      type: DT_FLOAT
    }
  }
  attr {
    key: "_output_shapes"
    value {
      list {
        shape {
          dim {
            size: -1
          }
          dim {
            size: 13
          }
        }
      }
    }
  }
}
node {
  name: "adanet/iteration_0/subnetwork_t0_dnn3/model_fn/dnn/hiddenlayer_0/kernel/part_0/Initializer/random_uniform/shape"
  op: "Const"
  attr {
    key: "_class"
    value {
      list {
        s: "loc:@adanet/iteration_0/subnetwork_t0_dnn3/model_fn/dnn/hiddenlayer_0/kernel/part_0"
      }
    }
  }
  attr {
    key: "_output_shapes"
    value {
      list {
        shape {
          dim {
            size: 2
          }
        }
      }
    }
  }
  attr {
    key: "dtype"
    value {
      type: DT_INT32
    }
  }
  attr {
    key: "value"
    value {
      tensor {
        dtype: DT_INT32
        tensor_shape {
          dim {
            size: 2
          }
        }
        tensor_content: "\r\000\000\000@\000\000\000"
      }
    }
  }
}
node {
  name: "adanet/iteration_0/subnetwork_t0_dnn3/model_fn/dnn/hiddenlayer_0/kernel/part_0/Initializer/random_uniform/min"
  op: "Const"
  attr {
    key: "_class"
    value {
      list {
        s: "loc:@adanet/iteration_0/subnetwork_t0_dnn3/model_fn/dnn/hiddenlayer_0/kernel/part_0"
      }
    }
  }
  attr {
    key: "_output_shapes"
    value {
      list {
        shape {
        }
      }
    }
  }
  attr {
    key: "dtype"
    value {
      type: DT_FLOAT
    }
  }
  attr {
    key: "value"
    value {
      tensor {
        dtype: DT_FLOAT
        tensor_shape {
        }
        float_val: -0.2791452705860138
      }
    }
  }
}
node {
  name: "adanet/iteration_0/subnetwork_t0_dnn3/model_fn/dnn/hiddenlayer_0/kernel/part_0/Initializer/random_uniform/max"
  op: "Const"
  attr {
    key: "_class"
    value {
      list {
        s: "loc:@adanet/iteration_0/subnetwork_t0_dnn3/model_fn/dnn/hiddenlayer_0/kernel/part_0"
      }
    }
  }
  attr {
    key: "_output_shapes"
    value {
      list {
        shape {
        }
      }
    }
  }
  attr {
    key: "dtype"
    value {
      type: DT_FLOAT
    }
  }
  attr {
    key: "value"
    value {
      tensor {
        dtype: DT_FLOAT
        tensor_shape {
        }
        float_val: 0.2791452705860138
      }
    }
  }
}
node {
  name: "adanet/iteration_0/subnetwork_t0_dnn3/model_fn/dnn/hiddenlayer_0/kernel/part_0/Initializer/random_uniform/RandomUniform"
  op: "RandomUniform"
  input: "adanet/iteration_0/subnetwork_t0_dnn3/model_fn/dnn/hiddenlayer_0/kernel/part_0/Initializer/random_uniform/shape"
  attr {
    key: "T"
    value {
      type: DT_INT32
    }
  }
  attr {
    key: "_class"
    value {
      list {
        s: "loc:@adanet/iteration_0/subnetwork_t0_dnn3/model_fn/dnn/hiddenlayer_0/kernel/part_0"
      }
    }
  }
  attr {
    key: "_output_shapes"
    value {
      list {
        shape {
          dim {
            size: 13
          }
          dim {
            size: 64
          }
        }
      }
    }
  }
  attr {
    key: "dtype"
    value {
      type: DT_FLOAT
    }
  }
  attr {
    key: "seed"
    value {
      i: 0
    }
  }
  attr {
    key: "seed2"
    value {
      i: 0
    }
  }
}
node {
  name: "adanet/iteration_0/subnetwork_t0_dnn3/model_fn/dnn/hiddenlayer_0/kernel/part_0/Initializer/random_uniform/sub"
  op: "Sub"
  input: "adanet/iteration_0/subnetwork_t0_dnn3/model_fn/dnn/hiddenlayer_0/kernel/part_0/Initializer/random_uniform/max"
  input: "adanet/iteration_0/subnetwork_t0_dnn3/model_fn/dnn/hiddenlayer_0/kernel/part_0/Initializer/random_uniform/min"
  attr {
    key: "T"
    value {
      type: DT_FLOAT
    }
  }
  attr {
    key: "_class"
    value {
      list {
        s: "loc:@adanet/iteration_0/subnetwork_t0_dnn3/model_fn/dnn/hiddenlayer_0/kernel/part_0"
      }
    }
  }
  attr {
    key: "_output_shapes"
    value {
      list {
        shape {
        }
      }
    }
  }
}
node {
  name: "adanet/iteration_0/subnetwork_t0_dnn3/model_fn/dnn/hiddenlayer_0/kernel/part_0/Initializer/random_uniform/mul"
  op: "Mul"
  input: "adanet/iteration_0/subnetwork_t0_dnn3/model_fn/dnn/hiddenlayer_0/kernel/part_0/Initializer/random_uniform/RandomUniform"
  input: "adanet/iteration_0/subnetwork_t0_dnn3/model_fn/dnn/hiddenlayer_0/kernel/part_0/Initializer/random_uniform/sub"
  attr {
    key: "T"
    value {
      type: DT_FLOAT
    }
  }
  attr {
    key: "_class"
    value {
      list {
        s: "loc:@adanet/iteration_0/subnetwork_t0_dnn3/model_fn/dnn/hiddenlayer_0/kernel/part_0"
      }
    }
  }
  attr {
    key: "_output_shapes"
    value {
      list {
        shape {
          dim {
            size: 13
          }
          dim {
            size: 64
          }
        }
      }
    }
  }
}
node {
  name: "adanet/iteration_0/subnetwork_t0_dnn3/model_fn/dnn/hiddenlayer_0/kernel/part_0/Initializer/random_uniform"
  op: "Add"
  input: "adanet/iteration_0/subnetwork_t0_dnn3/model_fn/dnn/hiddenlayer_0/kernel/part_0/Initializer/random_uniform/mul"
  input: "adanet/iteration_0/subnetwork_t0_dnn3/model_fn/dnn/hiddenlayer_0/kernel/part_0/Initializer/random_uniform/min"
  attr {
    key: "T"
    value {
      type: DT_FLOAT
    }
  }
  attr {
    key: "_class"
    value {
      list {
        s: "loc:@adanet/iteration_0/subnetwork_t0_dnn3/model_fn/dnn/hiddenlayer_0/kernel/part_0"
      }
    }
  }
  attr {
    key: "_output_shapes"
    value {
      list {
        shape {
          dim {
            size: 13
          }
          dim {
            size: 64
          }
        }
      }
    }
  }
}
node {
  name: "adanet/iteration_0/subnetwork_t0_dnn3/model_fn/dnn/hiddenlayer_0/kernel/part_0"
  op: "VarHandleOp"
  attr {
    key: "_class"
    value {
      list {
        s: "loc:@adanet/iteration_0/subnetwork_t0_dnn3/model_fn/dnn/hiddenlayer_0/kernel/part_0"
      }
    }
  }
  attr {
    key: "_output_shapes"
    value {
      list {
        shape {
        }
      }
    }
  }
  attr {
    key: "container"
    value {
      s: ""
    }
  }
  attr {
    key: "dtype"
    value {
      type: DT_FLOAT
    }
  }
  attr {
    key: "shape"
    value {
      shape {
        dim {
          size: 13
        }
        dim {
          size: 64
        }
      }
    }
  }
  attr {
    key: "shared_name"
    value {
      s: "adanet/iteration_0/subnetwork_t0_dnn3/model_fn/dnn/hiddenlayer_0/kernel/part_0"
    }
  }
}
node {
  name: "adanet/iteration_0/subnetwork_t0_dnn3/model_fn/dnn/hiddenlayer_0/kernel/part_0/IsInitialized/VarIsInitializedOp"
  op: "VarIsInitializedOp"
  input: "adanet/iteration_0/subnetwork_t0_dnn3/model_fn/dnn/hiddenlayer_0/kernel/part_0"
  attr {
    key: "_output_shapes"
    value {
      list {
        shape {
        }
      }
    }
  }
}
node {
  name: "adanet/iteration_0/subnetwork_t0_dnn3/model_fn/dnn/hiddenlayer_0/kernel/part_0/Assign"
  op: "AssignVariableOp"
  input: "adanet/iteration_0/subnetwork_t0_dnn3/model_fn/dnn/hiddenlayer_0/kernel/part_0"
  input: "adanet/iteration_0/subnetwork_t0_dnn3/model_fn/dnn/hiddenlayer_0/kernel/part_0/Initializer/random_uniform"
  attr {
    key: "_class"
    value {
      list {
        s: "loc:@adanet/iteration_0/subnetwork_t0_dnn3/model_fn/dnn/hiddenlayer_0/kernel/part_0"
      }
    }
  }
  attr {
    key: "dtype"
    value {
      type: DT_FLOAT
    }
  }
}
node {
  name: "adanet/iteration_0/subnetwork_t0_dnn3/model_fn/dnn/hiddenlayer_0/kernel/part_0/Read/ReadVariableOp"
  op: "ReadVariableOp"
  input: "adanet/iteration_0/subnetwork_t0_dnn3/model_fn/dnn/hiddenlayer_0/kernel/part_0"
  attr {
    key: "_class"
    value {
      list {
        s: "loc:@adanet/iteration_0/subnetwork_t0_dnn3/model_fn/dnn/hiddenlayer_0/kernel/part_0"
      }
    }
  }
  attr {
    key: "_output_shapes"
    value {
      list {
        shape {
          dim {
            size: 13
          }
          dim {
            size: 64
          }
        }
      }
    }
  }
  attr {
    key: "dtype"
    value {
      type: DT_FLOAT
    }
  }
}
node {
  name: "adanet/iteration_0/subnetwork_t0_dnn3/model_fn/dnn/hiddenlayer_0/bias/part_0/Initializer/zeros"
  op: "Const"
  attr {
    key: "_class"
    value {
      list {
        s: "loc:@adanet/iteration_0/subnetwork_t0_dnn3/model_fn/dnn/hiddenlayer_0/bias/part_0"
      }
    }
  }
  attr {
    key: "_output_shapes"
    value {
      list {
        shape {
          dim {
            size: 64
          }
        }
      }
    }
  }
  attr {
    key: "dtype"
    value {
      type: DT_FLOAT
    }
  }
  attr {
    key: "value"
    value {
      tensor {
        dtype: DT_FLOAT
        tensor_shape {
          dim {
            size: 64
          }
        }
        float_val: 0.0
      }
    }
  }
}
node {
  name: "adanet/iteration_0/subnetwork_t0_dnn3/model_fn/dnn/hiddenlayer_0/bias/part_0"
  op: "VarHandleOp"
  attr {
    key: "_class"
    value {
      list {
        s: "loc:@adanet/iteration_0/subnetwork_t0_dnn3/model_fn/dnn/hiddenlayer_0/bias/part_0"
      }
    }
  }
  attr {
    key: "_output_shapes"
    value {
      list {
        shape {
        }
      }
    }
  }
  attr {
    key: "container"
    value {
      s: ""
    }
  }
  attr {
    key: "dtype"
    value {
      type: DT_FLOAT
    }
  }
  attr {
    key: "shape"
    value {
      shape {
        dim {
          size: 64
        }
      }
    }
  }
  attr {
    key: "shared_name"
    value {
      s: "adanet/iteration_0/subnetwork_t0_dnn3/model_fn/dnn/hiddenlayer_0/bias/part_0"
    }
  }
}
node {
  name: "adanet/iteration_0/subnetwork_t0_dnn3/model_fn/dnn/hiddenlayer_0/bias/part_0/IsInitialized/VarIsInitializedOp"
  op: "VarIsInitializedOp"
  input: "adanet/iteration_0/subnetwork_t0_dnn3/model_fn/dnn/hiddenlayer_0/bias/part_0"
  attr {
    key: "_output_shapes"
    value {
      list {
        shape {
        }
      }
    }
  }
}
node {
  name: "adanet/iteration_0/subnetwork_t0_dnn3/model_fn/dnn/hiddenlayer_0/bias/part_0/Assign"
  op: "AssignVariableOp"
  input: "adanet/iteration_0/subnetwork_t0_dnn3/model_fn/dnn/hiddenlayer_0/bias/part_0"
  input: "adanet/iteration_0/subnetwork_t0_dnn3/model_fn/dnn/hiddenlayer_0/bias/part_0/Initializer/zeros"
  attr {
    key: "_class"
    value {
      list {
        s: "loc:@adanet/iteration_0/subnetwork_t0_dnn3/model_fn/dnn/hiddenlayer_0/bias/part_0"
      }
    }
  }
  attr {
    key: "dtype"
    value {
      type: DT_FLOAT
    }
  }
}
node {
  name: "adanet/iteration_0/subnetwork_t0_dnn3/model_fn/dnn/hiddenlayer_0/bias/part_0/Read/ReadVariableOp"
  op: "ReadVariableOp"
  input: "adanet/iteration_0/subnetwork_t0_dnn3/model_fn/dnn/hiddenlayer_0/bias/part_0"
  attr {
    key: "_class"
    value {
      list {
        s: "loc:@adanet/iteration_0/subnetwork_t0_dnn3/model_fn/dnn/hiddenlayer_0/bias/part_0"
      }
    }
  }
  attr {
    key: "_output_shapes"
    value {
      list {
        shape {
          dim {
            size: 64
          }
        }
      }
    }
  }
  attr {
    key: "dtype"
    value {
      type: DT_FLOAT
    }
  }
}
node {
  name: "adanet/iteration_0/subnetwork_t0_dnn3/model_fn/dnn/hiddenlayer_0/kernel/ReadVariableOp"
  op: "ReadVariableOp"
  input: "adanet/iteration_0/subnetwork_t0_dnn3/model_fn/dnn/hiddenlayer_0/kernel/part_0"
  attr {
    key: "_output_shapes"
    value {
      list {
        shape {
          dim {
            size: 13
          }
          dim {
            size: 64
          }
        }
      }
    }
  }
  attr {
    key: "dtype"
    value {
      type: DT_FLOAT
    }
  }
}
node {
  name: "adanet/iteration_0/subnetwork_t0_dnn3/model_fn/dnn/hiddenlayer_0/kernel"
  op: "Identity"
  input: "adanet/iteration_0/subnetwork_t0_dnn3/model_fn/dnn/hiddenlayer_0/kernel/ReadVariableOp"
  attr {
    key: "T"
    value {
      type: DT_FLOAT
    }
  }
  attr {
    key: "_output_shapes"
    value {
      list {
        shape {
          dim {
            size: 13
          }
          dim {
            size: 64
          }
        }
      }
    }
  }
}
node {
  name: "adanet/iteration_0/subnetwork_t0_dnn3/model_fn/dnn/hiddenlayer_0/MatMul"
  op: "MatMul"
  input: "adanet/iteration_0/subnetwork_t0_dnn3/model_fn/dnn/input_from_feature_columns/input_layer/concat"
  input: "adanet/iteration_0/subnetwork_t0_dnn3/model_fn/dnn/hiddenlayer_0/kernel"
  attr {
    key: "T"
    value {
      type: DT_FLOAT
    }
  }
  attr {
    key: "_output_shapes"
    value {
      list {
        shape {
          dim {
            size: -1
          }
          dim {
            size: 64
          }
        }
      }
    }
  }
  attr {
    key: "transpose_a"
    value {
      b: false
    }
  }
  attr {
    key: "transpose_b"
    value {
      b: false
    }
  }
}
node {
  name: "adanet/iteration_0/subnetwork_t0_dnn3/model_fn/dnn/hiddenlayer_0/bias/ReadVariableOp"
  op: "ReadVariableOp"
  input: "adanet/iteration_0/subnetwork_t0_dnn3/model_fn/dnn/hiddenlayer_0/bias/part_0"
  attr {
    key: "_output_shapes"
    value {
      list {
        shape {
          dim {
            size: 64
          }
        }
      }
    }
  }
  attr {
    key: "dtype"
    value {
      type: DT_FLOAT
    }
  }
}
node {
  name: "adanet/iteration_0/subnetwork_t0_dnn3/model_fn/dnn/hiddenlayer_0/bias"
  op: "Identity"
  input: "adanet/iteration_0/subnetwork_t0_dnn3/model_fn/dnn/hiddenlayer_0/bias/ReadVariableOp"
  attr {
    key: "T"
    value {
      type: DT_FLOAT
    }
  }
  attr {
    key: "_output_shapes"
    value {
      list {
        shape {
          dim {
            size: 64
          }
        }
      }
    }
  }
}
node {
  name: "adanet/iteration_0/subnetwork_t0_dnn3/model_fn/dnn/hiddenlayer_0/BiasAdd"
  op: "BiasAdd"
  input: "adanet/iteration_0/subnetwork_t0_dnn3/model_fn/dnn/hiddenlayer_0/MatMul"
  input: "adanet/iteration_0/subnetwork_t0_dnn3/model_fn/dnn/hiddenlayer_0/bias"
  attr {
    key: "T"
    value {
      type: DT_FLOAT
    }
  }
  attr {
    key: "_output_shapes"
    value {
      list {
        shape {
          dim {
            size: -1
          }
          dim {
            size: 64
          }
        }
      }
    }
  }
  attr {
    key: "data_format"
    value {
      s: "NHWC"
    }
  }
}
node {
  name: "adanet/iteration_0/subnetwork_t0_dnn3/model_fn/dnn/hiddenlayer_0/Relu"
  op: "Relu"
  input: "adanet/iteration_0/subnetwork_t0_dnn3/model_fn/dnn/hiddenlayer_0/BiasAdd"
  attr {
    key: "T"
    value {
      type: DT_FLOAT
    }
  }
  attr {
    key: "_output_shapes"
    value {
      list {
        shape {
          dim {
            size: -1
          }
          dim {
            size: 64
          }
        }
      }
    }
  }
}
node {
  name: "adanet/iteration_0/subnetwork_t0_dnn3/model_fn/dnn/zero_fraction/Size"
  op: "Size"
  input: "adanet/iteration_0/subnetwork_t0_dnn3/model_fn/dnn/hiddenlayer_0/Relu"
  attr {
    key: "T"
    value {
      type: DT_FLOAT
    }
  }
  attr {
    key: "_output_shapes"
    value {
      list {
        shape {
        }
      }
    }
  }
  attr {
    key: "out_type"
    value {
      type: DT_INT64
    }
  }
}
node {
  name: "adanet/iteration_0/subnetwork_t0_dnn3/model_fn/dnn/zero_fraction/LessEqual/y"
  op: "Const"
  attr {
    key: "_output_shapes"
    value {
      list {
        shape {
        }
      }
    }
  }
  attr {
    key: "dtype"
    value {
      type: DT_INT64
    }
  }
  attr {
    key: "value"
    value {
      tensor {
        dtype: DT_INT64
        tensor_shape {
        }
        int64_val: 2147483647
      }
    }
  }
}
node {
  name: "adanet/iteration_0/subnetwork_t0_dnn3/model_fn/dnn/zero_fraction/LessEqual"
  op: "LessEqual"
  input: "adanet/iteration_0/subnetwork_t0_dnn3/model_fn/dnn/zero_fraction/Size"
  input: "adanet/iteration_0/subnetwork_t0_dnn3/model_fn/dnn/zero_fraction/LessEqual/y"
  attr {
    key: "T"
    value {
      type: DT_INT64
    }
  }
  attr {
    key: "_output_shapes"
    value {
      list {
        shape {
        }
      }
    }
  }
}
node {
  name: "adanet/iteration_0/subnetwork_t0_dnn3/model_fn/dnn/zero_fraction/cond/Switch"
  op: "Switch"
  input: "adanet/iteration_0/subnetwork_t0_dnn3/model_fn/dnn/zero_fraction/LessEqual"
  input: "adanet/iteration_0/subnetwork_t0_dnn3/model_fn/dnn/zero_fraction/LessEqual"
  attr {
    key: "T"
    value {
      type: DT_BOOL
    }
  }
  attr {
    key: "_output_shapes"
    value {
      list {
        shape {
        }
        shape {
        }
      }
    }
  }
}
node {
  name: "adanet/iteration_0/subnetwork_t0_dnn3/model_fn/dnn/zero_fraction/cond/switch_t"
  op: "Identity"
  input: "adanet/iteration_0/subnetwork_t0_dnn3/model_fn/dnn/zero_fraction/cond/Switch:1"
  attr {
    key: "T"
    value {
      type: DT_BOOL
    }
  }
  attr {
    key: "_output_shapes"
    value {
      list {
        shape {
        }
      }
    }
  }
}
node {
  name: "adanet/iteration_0/subnetwork_t0_dnn3/model_fn/dnn/zero_fraction/cond/switch_f"
  op: "Identity"
  input: "adanet/iteration_0/subnetwork_t0_dnn3/model_fn/dnn/zero_fraction/cond/Switch"
  attr {
    key: "T"
    value {
      type: DT_BOOL
    }
  }
  attr {
    key: "_output_shapes"
    value {
      list {
        shape {
        }
      }
    }
  }
}
node {
  name: "adanet/iteration_0/subnetwork_t0_dnn3/model_fn/dnn/zero_fraction/cond/pred_id"
  op: "Identity"
  input: "adanet/iteration_0/subnetwork_t0_dnn3/model_fn/dnn/zero_fraction/LessEqual"
  attr {
    key: "T"
    value {
      type: DT_BOOL
    }
  }
  attr {
    key: "_output_shapes"
    value {
      list {
        shape {
        }
      }
    }
  }
}
node {
  name: "adanet/iteration_0/subnetwork_t0_dnn3/model_fn/dnn/zero_fraction/cond/count_nonzero/zeros"
  op: "Const"
  input: "^adanet/iteration_0/subnetwork_t0_dnn3/model_fn/dnn/zero_fraction/cond/switch_t"
  attr {
    key: "_output_shapes"
    value {
      list {
        shape {
        }
      }
    }
  }
  attr {
    key: "dtype"
    value {
      type: DT_FLOAT
    }
  }
  attr {
    key: "value"
    value {
      tensor {
        dtype: DT_FLOAT
        tensor_shape {
        }
        float_val: 0.0
      }
    }
  }
}
node {
  name: "adanet/iteration_0/subnetwork_t0_dnn3/model_fn/dnn/zero_fraction/cond/count_nonzero/NotEqual"
  op: "NotEqual"
  input: "adanet/iteration_0/subnetwork_t0_dnn3/model_fn/dnn/zero_fraction/cond/count_nonzero/NotEqual/Switch:1"
  input: "adanet/iteration_0/subnetwork_t0_dnn3/model_fn/dnn/zero_fraction/cond/count_nonzero/zeros"
  attr {
    key: "T"
    value {
      type: DT_FLOAT
    }
  }
  attr {
    key: "_output_shapes"
    value {
      list {
        shape {
          dim {
            size: -1
          }
          dim {
            size: 64
          }
        }
      }
    }
  }
}
node {
  name: "adanet/iteration_0/subnetwork_t0_dnn3/model_fn/dnn/zero_fraction/cond/count_nonzero/NotEqual/Switch"
  op: "Switch"
  input: "adanet/iteration_0/subnetwork_t0_dnn3/model_fn/dnn/hiddenlayer_0/Relu"
  input: "adanet/iteration_0/subnetwork_t0_dnn3/model_fn/dnn/zero_fraction/cond/pred_id"
  attr {
    key: "T"
    value {
      type: DT_FLOAT
    }
  }
  attr {
    key: "_class"
    value {
      list {
        s: "loc:@adanet/iteration_0/subnetwork_t0_dnn3/model_fn/dnn/hiddenlayer_0/Relu"
      }
    }
  }
  attr {
    key: "_output_shapes"
    value {
      list {
        shape {
          dim {
            size: -1
          }
          dim {
            size: 64
          }
        }
        shape {
          dim {
            size: -1
          }
          dim {
            size: 64
          }
        }
      }
    }
  }
}
node {
  name: "adanet/iteration_0/subnetwork_t0_dnn3/model_fn/dnn/zero_fraction/cond/count_nonzero/Cast"
  op: "Cast"
  input: "adanet/iteration_0/subnetwork_t0_dnn3/model_fn/dnn/zero_fraction/cond/count_nonzero/NotEqual"
  attr {
    key: "DstT"
    value {
      type: DT_INT32
    }
  }
  attr {
    key: "SrcT"
    value {
      type: DT_BOOL
    }
  }
  attr {
    key: "Truncate"
    value {
      b: false
    }
  }
  attr {
    key: "_output_shapes"
    value {
      list {
        shape {
          dim {
            size: -1
          }
          dim {
            size: 64
          }
        }
      }
    }
  }
}
node {
  name: "adanet/iteration_0/subnetwork_t0_dnn3/model_fn/dnn/zero_fraction/cond/count_nonzero/Const"
  op: "Const"
  input: "^adanet/iteration_0/subnetwork_t0_dnn3/model_fn/dnn/zero_fraction/cond/switch_t"
  attr {
    key: "_output_shapes"
    value {
      list {
        shape {
          dim {
            size: 2
          }
        }
      }
    }
  }
  attr {
    key: "dtype"
    value {
      type: DT_INT32
    }
  }
  attr {
    key: "value"
    value {
      tensor {
        dtype: DT_INT32
        tensor_shape {
          dim {
            size: 2
          }
        }
        tensor_content: "\000\000\000\000\001\000\000\000"
      }
    }
  }
}
node {
  name: "adanet/iteration_0/subnetwork_t0_dnn3/model_fn/dnn/zero_fraction/cond/count_nonzero/nonzero_count"
  op: "Sum"
  input: "adanet/iteration_0/subnetwork_t0_dnn3/model_fn/dnn/zero_fraction/cond/count_nonzero/Cast"
  input: "adanet/iteration_0/subnetwork_t0_dnn3/model_fn/dnn/zero_fraction/cond/count_nonzero/Const"
  attr {
    key: "T"
    value {
      type: DT_INT32
    }
  }
  attr {
    key: "Tidx"
    value {
      type: DT_INT32
    }
  }
  attr {
    key: "_output_shapes"
    value {
      list {
        shape {
        }
      }
    }
  }
  attr {
    key: "keep_dims"
    value {
      b: false
    }
  }
}
node {
  name: "adanet/iteration_0/subnetwork_t0_dnn3/model_fn/dnn/zero_fraction/cond/Cast"
  op: "Cast"
  input: "adanet/iteration_0/subnetwork_t0_dnn3/model_fn/dnn/zero_fraction/cond/count_nonzero/nonzero_count"
  attr {
    key: "DstT"
    value {
      type: DT_INT64
    }
  }
  attr {
    key: "SrcT"
    value {
      type: DT_INT32
    }
  }
  attr {
    key: "Truncate"
    value {
      b: false
    }
  }
  attr {
    key: "_output_shapes"
    value {
      list {
        shape {
        }
      }
    }
  }
}
node {
  name: "adanet/iteration_0/subnetwork_t0_dnn3/model_fn/dnn/zero_fraction/cond/count_nonzero_1/zeros"
  op: "Const"
  input: "^adanet/iteration_0/subnetwork_t0_dnn3/model_fn/dnn/zero_fraction/cond/switch_f"
  attr {
    key: "_output_shapes"
    value {
      list {
        shape {
        }
      }
    }
  }
  attr {
    key: "dtype"
    value {
      type: DT_FLOAT
    }
  }
  attr {
    key: "value"
    value {
      tensor {
        dtype: DT_FLOAT
        tensor_shape {
        }
        float_val: 0.0
      }
    }
  }
}
node {
  name: "adanet/iteration_0/subnetwork_t0_dnn3/model_fn/dnn/zero_fraction/cond/count_nonzero_1/NotEqual"
  op: "NotEqual"
  input: "adanet/iteration_0/subnetwork_t0_dnn3/model_fn/dnn/zero_fraction/cond/count_nonzero_1/NotEqual/Switch"
  input: "adanet/iteration_0/subnetwork_t0_dnn3/model_fn/dnn/zero_fraction/cond/count_nonzero_1/zeros"
  attr {
    key: "T"
    value {
      type: DT_FLOAT
    }
  }
  attr {
    key: "_output_shapes"
    value {
      list {
        shape {
          dim {
            size: -1
          }
          dim {
            size: 64
          }
        }
      }
    }
  }
}
node {
  name: "adanet/iteration_0/subnetwork_t0_dnn3/model_fn/dnn/zero_fraction/cond/count_nonzero_1/NotEqual/Switch"
  op: "Switch"
  input: "adanet/iteration_0/subnetwork_t0_dnn3/model_fn/dnn/hiddenlayer_0/Relu"
  input: "adanet/iteration_0/subnetwork_t0_dnn3/model_fn/dnn/zero_fraction/cond/pred_id"
  attr {
    key: "T"
    value {
      type: DT_FLOAT
    }
  }
  attr {
    key: "_class"
    value {
      list {
        s: "loc:@adanet/iteration_0/subnetwork_t0_dnn3/model_fn/dnn/hiddenlayer_0/Relu"
      }
    }
  }
  attr {
    key: "_output_shapes"
    value {
      list {
        shape {
          dim {
            size: -1
          }
          dim {
            size: 64
          }
        }
        shape {
          dim {
            size: -1
          }
          dim {
            size: 64
          }
        }
      }
    }
  }
}
node {
  name: "adanet/iteration_0/subnetwork_t0_dnn3/model_fn/dnn/zero_fraction/cond/count_nonzero_1/Cast"
  op: "Cast"
  input: "adanet/iteration_0/subnetwork_t0_dnn3/model_fn/dnn/zero_fraction/cond/count_nonzero_1/NotEqual"
  attr {
    key: "DstT"
    value {
      type: DT_INT64
    }
  }
  attr {
    key: "SrcT"
    value {
      type: DT_BOOL
    }
  }
  attr {
    key: "Truncate"
    value {
      b: false
    }
  }
  attr {
    key: "_output_shapes"
    value {
      list {
        shape {
          dim {
            size: -1
          }
          dim {
            size: 64
          }
        }
      }
    }
  }
}
node {
  name: "adanet/iteration_0/subnetwork_t0_dnn3/model_fn/dnn/zero_fraction/cond/count_nonzero_1/Const"
  op: "Const"
  input: "^adanet/iteration_0/subnetwork_t0_dnn3/model_fn/dnn/zero_fraction/cond/switch_f"
  attr {
    key: "_output_shapes"
    value {
      list {
        shape {
          dim {
            size: 2
          }
        }
      }
    }
  }
  attr {
    key: "dtype"
    value {
      type: DT_INT32
    }
  }
  attr {
    key: "value"
    value {
      tensor {
        dtype: DT_INT32
        tensor_shape {
          dim {
            size: 2
          }
        }
        tensor_content: "\000\000\000\000\001\000\000\000"
      }
    }
  }
}
node {
  name: "adanet/iteration_0/subnetwork_t0_dnn3/model_fn/dnn/zero_fraction/cond/count_nonzero_1/nonzero_count"
  op: "Sum"
  input: "adanet/iteration_0/subnetwork_t0_dnn3/model_fn/dnn/zero_fraction/cond/count_nonzero_1/Cast"
  input: "adanet/iteration_0/subnetwork_t0_dnn3/model_fn/dnn/zero_fraction/cond/count_nonzero_1/Const"
  attr {
    key: "T"
    value {
      type: DT_INT64
    }
  }
  attr {
    key: "Tidx"
    value {
      type: DT_INT32
    }
  }
  attr {
    key: "_output_shapes"
    value {
      list {
        shape {
        }
      }
    }
  }
  attr {
    key: "keep_dims"
    value {
      b: false
    }
  }
}
node {
  name: "adanet/iteration_0/subnetwork_t0_dnn3/model_fn/dnn/zero_fraction/cond/Merge"
  op: "Merge"
  input: "adanet/iteration_0/subnetwork_t0_dnn3/model_fn/dnn/zero_fraction/cond/count_nonzero_1/nonzero_count"
  input: "adanet/iteration_0/subnetwork_t0_dnn3/model_fn/dnn/zero_fraction/cond/Cast"
  attr {
    key: "N"
    value {
      i: 2
    }
  }
  attr {
    key: "T"
    value {
      type: DT_INT64
    }
  }
  attr {
    key: "_output_shapes"
    value {
      list {
        shape {
        }
        shape {
        }
      }
    }
  }
}
node {
  name: "adanet/iteration_0/subnetwork_t0_dnn3/model_fn/dnn/zero_fraction/counts_to_fraction/sub"
  op: "Sub"
  input: "adanet/iteration_0/subnetwork_t0_dnn3/model_fn/dnn/zero_fraction/Size"
  input: "adanet/iteration_0/subnetwork_t0_dnn3/model_fn/dnn/zero_fraction/cond/Merge"
  attr {
    key: "T"
    value {
      type: DT_INT64
    }
  }
  attr {
    key: "_output_shapes"
    value {
      list {
        shape {
        }
      }
    }
  }
}
node {
  name: "adanet/iteration_0/subnetwork_t0_dnn3/model_fn/dnn/zero_fraction/counts_to_fraction/Cast"
  op: "Cast"
  input: "adanet/iteration_0/subnetwork_t0_dnn3/model_fn/dnn/zero_fraction/counts_to_fraction/sub"
  attr {
    key: "DstT"
    value {
      type: DT_FLOAT
    }
  }
  attr {
    key: "SrcT"
    value {
      type: DT_INT64
    }
  }
  attr {
    key: "Truncate"
    value {
      b: false
    }
  }
  attr {
    key: "_output_shapes"
    value {
      list {
        shape {
        }
      }
    }
  }
}
node {
  name: "adanet/iteration_0/subnetwork_t0_dnn3/model_fn/dnn/zero_fraction/counts_to_fraction/Cast_1"
  op: "Cast"
  input: "adanet/iteration_0/subnetwork_t0_dnn3/model_fn/dnn/zero_fraction/Size"
  attr {
    key: "DstT"
    value {
      type: DT_FLOAT
    }
  }
  attr {
    key: "SrcT"
    value {
      type: DT_INT64
    }
  }
  attr {
    key: "Truncate"
    value {
      b: false
    }
  }
  attr {
    key: "_output_shapes"
    value {
      list {
        shape {
        }
      }
    }
  }
}
node {
  name: "adanet/iteration_0/subnetwork_t0_dnn3/model_fn/dnn/zero_fraction/counts_to_fraction/truediv"
  op: "RealDiv"
  input: "adanet/iteration_0/subnetwork_t0_dnn3/model_fn/dnn/zero_fraction/counts_to_fraction/Cast"
  input: "adanet/iteration_0/subnetwork_t0_dnn3/model_fn/dnn/zero_fraction/counts_to_fraction/Cast_1"
  attr {
    key: "T"
    value {
      type: DT_FLOAT
    }
  }
  attr {
    key: "_output_shapes"
    value {
      list {
        shape {
        }
      }
    }
  }
}
node {
  name: "adanet/iteration_0/subnetwork_t0_dnn3/model_fn/dnn/zero_fraction/fraction"
  op: "Identity"
  input: "adanet/iteration_0/subnetwork_t0_dnn3/model_fn/dnn/zero_fraction/counts_to_fraction/truediv"
  attr {
    key: "T"
    value {
      type: DT_FLOAT
    }
  }
  attr {
    key: "_output_shapes"
    value {
      list {
        shape {
        }
      }
    }
  }
}
node {
  name: "adanet/iteration_0/subnetwork_t0_dnn3/model_fn/dnn/Const"
  op: "Const"
  attr {
    key: "_output_shapes"
    value {
      list {
        shape {
        }
      }
    }
  }
  attr {
    key: "dtype"
    value {
      type: DT_STRING
    }
  }
  attr {
    key: "value"
    value {
      tensor {
        dtype: DT_STRING
        tensor_shape {
        }
        string_val: ""
      }
    }
  }
}
node {
  name: "adanet/iteration_0/subnetwork_t0_dnn3/model_fn/dnn/Const_1"
  op: "Const"
  attr {
    key: "_output_shapes"
    value {
      list {
        shape {
        }
      }
    }
  }
  attr {
    key: "dtype"
    value {
      type: DT_STRING
    }
  }
  attr {
    key: "value"
    value {
      tensor {
        dtype: DT_STRING
        tensor_shape {
        }
        string_val: ""
      }
    }
  }
}
node {
  name: "adanet/iteration_0/subnetwork_t0_dnn3/model_fn/dnn/hiddenlayer_1/kernel/part_0/Initializer/random_uniform/shape"
  op: "Const"
  attr {
    key: "_class"
    value {
      list {
        s: "loc:@adanet/iteration_0/subnetwork_t0_dnn3/model_fn/dnn/hiddenlayer_1/kernel/part_0"
      }
    }
  }
  attr {
    key: "_output_shapes"
    value {
      list {
        shape {
          dim {
            size: 2
          }
        }
      }
    }
  }
  attr {
    key: "dtype"
    value {
      type: DT_INT32
    }
  }
  attr {
    key: "value"
    value {
      tensor {
        dtype: DT_INT32
        tensor_shape {
          dim {
            size: 2
          }
        }
        tensor_content: "@\000\000\000@\000\000\000"
      }
    }
  }
}
node {
  name: "adanet/iteration_0/subnetwork_t0_dnn3/model_fn/dnn/hiddenlayer_1/kernel/part_0/Initializer/random_uniform/min"
  op: "Const"
  attr {
    key: "_class"
    value {
      list {
        s: "loc:@adanet/iteration_0/subnetwork_t0_dnn3/model_fn/dnn/hiddenlayer_1/kernel/part_0"
      }
    }
  }
  attr {
    key: "_output_shapes"
    value {
      list {
        shape {
        }
      }
    }
  }
  attr {
    key: "dtype"
    value {
      type: DT_FLOAT
    }
  }
  attr {
    key: "value"
    value {
      tensor {
        dtype: DT_FLOAT
        tensor_shape {
        }
        float_val: -0.21650634706020355
      }
    }
  }
}
node {
  name: "adanet/iteration_0/subnetwork_t0_dnn3/model_fn/dnn/hiddenlayer_1/kernel/part_0/Initializer/random_uniform/max"
  op: "Const"
  attr {
    key: "_class"
    value {
      list {
        s: "loc:@adanet/iteration_0/subnetwork_t0_dnn3/model_fn/dnn/hiddenlayer_1/kernel/part_0"
      }
    }
  }
  attr {
    key: "_output_shapes"
    value {
      list {
        shape {
        }
      }
    }
  }
  attr {
    key: "dtype"
    value {
      type: DT_FLOAT
    }
  }
  attr {
    key: "value"
    value {
      tensor {
        dtype: DT_FLOAT
        tensor_shape {
        }
        float_val: 0.21650634706020355
      }
    }
  }
}
node {
  name: "adanet/iteration_0/subnetwork_t0_dnn3/model_fn/dnn/hiddenlayer_1/kernel/part_0/Initializer/random_uniform/RandomUniform"
  op: "RandomUniform"
  input: "adanet/iteration_0/subnetwork_t0_dnn3/model_fn/dnn/hiddenlayer_1/kernel/part_0/Initializer/random_uniform/shape"
  attr {
    key: "T"
    value {
      type: DT_INT32
    }
  }
  attr {
    key: "_class"
    value {
      list {
        s: "loc:@adanet/iteration_0/subnetwork_t0_dnn3/model_fn/dnn/hiddenlayer_1/kernel/part_0"
      }
    }
  }
  attr {
    key: "_output_shapes"
    value {
      list {
        shape {
          dim {
            size: 64
          }
          dim {
            size: 64
          }
        }
      }
    }
  }
  attr {
    key: "dtype"
    value {
      type: DT_FLOAT
    }
  }
  attr {
    key: "seed"
    value {
      i: 0
    }
  }
  attr {
    key: "seed2"
    value {
      i: 0
    }
  }
}
node {
  name: "adanet/iteration_0/subnetwork_t0_dnn3/model_fn/dnn/hiddenlayer_1/kernel/part_0/Initializer/random_uniform/sub"
  op: "Sub"
  input: "adanet/iteration_0/subnetwork_t0_dnn3/model_fn/dnn/hiddenlayer_1/kernel/part_0/Initializer/random_uniform/max"
  input: "adanet/iteration_0/subnetwork_t0_dnn3/model_fn/dnn/hiddenlayer_1/kernel/part_0/Initializer/random_uniform/min"
  attr {
    key: "T"
    value {
      type: DT_FLOAT
    }
  }
  attr {
    key: "_class"
    value {
      list {
        s: "loc:@adanet/iteration_0/subnetwork_t0_dnn3/model_fn/dnn/hiddenlayer_1/kernel/part_0"
      }
    }
  }
  attr {
    key: "_output_shapes"
    value {
      list {
        shape {
        }
      }
    }
  }
}
node {
  name: "adanet/iteration_0/subnetwork_t0_dnn3/model_fn/dnn/hiddenlayer_1/kernel/part_0/Initializer/random_uniform/mul"
  op: "Mul"
  input: "adanet/iteration_0/subnetwork_t0_dnn3/model_fn/dnn/hiddenlayer_1/kernel/part_0/Initializer/random_uniform/RandomUniform"
  input: "adanet/iteration_0/subnetwork_t0_dnn3/model_fn/dnn/hiddenlayer_1/kernel/part_0/Initializer/random_uniform/sub"
  attr {
    key: "T"
    value {
      type: DT_FLOAT
    }
  }
  attr {
    key: "_class"
    value {
      list {
        s: "loc:@adanet/iteration_0/subnetwork_t0_dnn3/model_fn/dnn/hiddenlayer_1/kernel/part_0"
      }
    }
  }
  attr {
    key: "_output_shapes"
    value {
      list {
        shape {
          dim {
            size: 64
          }
          dim {
            size: 64
          }
        }
      }
    }
  }
}
node {
  name: "adanet/iteration_0/subnetwork_t0_dnn3/model_fn/dnn/hiddenlayer_1/kernel/part_0/Initializer/random_uniform"
  op: "Add"
  input: "adanet/iteration_0/subnetwork_t0_dnn3/model_fn/dnn/hiddenlayer_1/kernel/part_0/Initializer/random_uniform/mul"
  input: "adanet/iteration_0/subnetwork_t0_dnn3/model_fn/dnn/hiddenlayer_1/kernel/part_0/Initializer/random_uniform/min"
  attr {
    key: "T"
    value {
      type: DT_FLOAT
    }
  }
  attr {
    key: "_class"
    value {
      list {
        s: "loc:@adanet/iteration_0/subnetwork_t0_dnn3/model_fn/dnn/hiddenlayer_1/kernel/part_0"
      }
    }
  }
  attr {
    key: "_output_shapes"
    value {
      list {
        shape {
          dim {
            size: 64
          }
          dim {
            size: 64
          }
        }
      }
    }
  }
}
node {
  name: "adanet/iteration_0/subnetwork_t0_dnn3/model_fn/dnn/hiddenlayer_1/kernel/part_0"
  op: "VarHandleOp"
  attr {
    key: "_class"
    value {
      list {
        s: "loc:@adanet/iteration_0/subnetwork_t0_dnn3/model_fn/dnn/hiddenlayer_1/kernel/part_0"
      }
    }
  }
  attr {
    key: "_output_shapes"
    value {
      list {
        shape {
        }
      }
    }
  }
  attr {
    key: "container"
    value {
      s: ""
    }
  }
  attr {
    key: "dtype"
    value {
      type: DT_FLOAT
    }
  }
  attr {
    key: "shape"
    value {
      shape {
        dim {
          size: 64
        }
        dim {
          size: 64
        }
      }
    }
  }
  attr {
    key: "shared_name"
    value {
      s: "adanet/iteration_0/subnetwork_t0_dnn3/model_fn/dnn/hiddenlayer_1/kernel/part_0"
    }
  }
}
node {
  name: "adanet/iteration_0/subnetwork_t0_dnn3/model_fn/dnn/hiddenlayer_1/kernel/part_0/IsInitialized/VarIsInitializedOp"
  op: "VarIsInitializedOp"
  input: "adanet/iteration_0/subnetwork_t0_dnn3/model_fn/dnn/hiddenlayer_1/kernel/part_0"
  attr {
    key: "_output_shapes"
    value {
      list {
        shape {
        }
      }
    }
  }
}
node {
  name: "adanet/iteration_0/subnetwork_t0_dnn3/model_fn/dnn/hiddenlayer_1/kernel/part_0/Assign"
  op: "AssignVariableOp"
  input: "adanet/iteration_0/subnetwork_t0_dnn3/model_fn/dnn/hiddenlayer_1/kernel/part_0"
  input: "adanet/iteration_0/subnetwork_t0_dnn3/model_fn/dnn/hiddenlayer_1/kernel/part_0/Initializer/random_uniform"
  attr {
    key: "_class"
    value {
      list {
        s: "loc:@adanet/iteration_0/subnetwork_t0_dnn3/model_fn/dnn/hiddenlayer_1/kernel/part_0"
      }
    }
  }
  attr {
    key: "dtype"
    value {
      type: DT_FLOAT
    }
  }
}
node {
  name: "adanet/iteration_0/subnetwork_t0_dnn3/model_fn/dnn/hiddenlayer_1/kernel/part_0/Read/ReadVariableOp"
  op: "ReadVariableOp"
  input: "adanet/iteration_0/subnetwork_t0_dnn3/model_fn/dnn/hiddenlayer_1/kernel/part_0"
  attr {
    key: "_class"
    value {
      list {
        s: "loc:@adanet/iteration_0/subnetwork_t0_dnn3/model_fn/dnn/hiddenlayer_1/kernel/part_0"
      }
    }
  }
  attr {
    key: "_output_shapes"
    value {
      list {
        shape {
          dim {
            size: 64
          }
          dim {
            size: 64
          }
        }
      }
    }
  }
  attr {
    key: "dtype"
    value {
      type: DT_FLOAT
    }
  }
}
node {
  name: "adanet/iteration_0/subnetwork_t0_dnn3/model_fn/dnn/hiddenlayer_1/bias/part_0/Initializer/zeros"
  op: "Const"
  attr {
    key: "_class"
    value {
      list {
        s: "loc:@adanet/iteration_0/subnetwork_t0_dnn3/model_fn/dnn/hiddenlayer_1/bias/part_0"
      }
    }
  }
  attr {
    key: "_output_shapes"
    value {
      list {
        shape {
          dim {
            size: 64
          }
        }
      }
    }
  }
  attr {
    key: "dtype"
    value {
      type: DT_FLOAT
    }
  }
  attr {
    key: "value"
    value {
      tensor {
        dtype: DT_FLOAT
        tensor_shape {
          dim {
            size: 64
          }
        }
        float_val: 0.0
      }
    }
  }
}
node {
  name: "adanet/iteration_0/subnetwork_t0_dnn3/model_fn/dnn/hiddenlayer_1/bias/part_0"
  op: "VarHandleOp"
  attr {
    key: "_class"
    value {
      list {
        s: "loc:@adanet/iteration_0/subnetwork_t0_dnn3/model_fn/dnn/hiddenlayer_1/bias/part_0"
      }
    }
  }
  attr {
    key: "_output_shapes"
    value {
      list {
        shape {
        }
      }
    }
  }
  attr {
    key: "container"
    value {
      s: ""
    }
  }
  attr {
    key: "dtype"
    value {
      type: DT_FLOAT
    }
  }
  attr {
    key: "shape"
    value {
      shape {
        dim {
          size: 64
        }
      }
    }
  }
  attr {
    key: "shared_name"
    value {
      s: "adanet/iteration_0/subnetwork_t0_dnn3/model_fn/dnn/hiddenlayer_1/bias/part_0"
    }
  }
}
node {
  name: "adanet/iteration_0/subnetwork_t0_dnn3/model_fn/dnn/hiddenlayer_1/bias/part_0/IsInitialized/VarIsInitializedOp"
  op: "VarIsInitializedOp"
  input: "adanet/iteration_0/subnetwork_t0_dnn3/model_fn/dnn/hiddenlayer_1/bias/part_0"
  attr {
    key: "_output_shapes"
    value {
      list {
        shape {
        }
      }
    }
  }
}
node {
  name: "adanet/iteration_0/subnetwork_t0_dnn3/model_fn/dnn/hiddenlayer_1/bias/part_0/Assign"
  op: "AssignVariableOp"
  input: "adanet/iteration_0/subnetwork_t0_dnn3/model_fn/dnn/hiddenlayer_1/bias/part_0"
  input: "adanet/iteration_0/subnetwork_t0_dnn3/model_fn/dnn/hiddenlayer_1/bias/part_0/Initializer/zeros"
  attr {
    key: "_class"
    value {
      list {
        s: "loc:@adanet/iteration_0/subnetwork_t0_dnn3/model_fn/dnn/hiddenlayer_1/bias/part_0"
      }
    }
  }
  attr {
    key: "dtype"
    value {
      type: DT_FLOAT
    }
  }
}
node {
  name: "adanet/iteration_0/subnetwork_t0_dnn3/model_fn/dnn/hiddenlayer_1/bias/part_0/Read/ReadVariableOp"
  op: "ReadVariableOp"
  input: "adanet/iteration_0/subnetwork_t0_dnn3/model_fn/dnn/hiddenlayer_1/bias/part_0"
  attr {
    key: "_class"
    value {
      list {
        s: "loc:@adanet/iteration_0/subnetwork_t0_dnn3/model_fn/dnn/hiddenlayer_1/bias/part_0"
      }
    }
  }
  attr {
    key: "_output_shapes"
    value {
      list {
        shape {
          dim {
            size: 64
          }
        }
      }
    }
  }
  attr {
    key: "dtype"
    value {
      type: DT_FLOAT
    }
  }
}
node {
  name: "adanet/iteration_0/subnetwork_t0_dnn3/model_fn/dnn/hiddenlayer_1/kernel/ReadVariableOp"
  op: "ReadVariableOp"
  input: "adanet/iteration_0/subnetwork_t0_dnn3/model_fn/dnn/hiddenlayer_1/kernel/part_0"
  attr {
    key: "_output_shapes"
    value {
      list {
        shape {
          dim {
            size: 64
          }
          dim {
            size: 64
          }
        }
      }
    }
  }
  attr {
    key: "dtype"
    value {
      type: DT_FLOAT
    }
  }
}
node {
  name: "adanet/iteration_0/subnetwork_t0_dnn3/model_fn/dnn/hiddenlayer_1/kernel"
  op: "Identity"
  input: "adanet/iteration_0/subnetwork_t0_dnn3/model_fn/dnn/hiddenlayer_1/kernel/ReadVariableOp"
  attr {
    key: "T"
    value {
      type: DT_FLOAT
    }
  }
  attr {
    key: "_output_shapes"
    value {
      list {
        shape {
          dim {
            size: 64
          }
          dim {
            size: 64
          }
        }
      }
    }
  }
}
node {
  name: "adanet/iteration_0/subnetwork_t0_dnn3/model_fn/dnn/hiddenlayer_1/MatMul"
  op: "MatMul"
  input: "adanet/iteration_0/subnetwork_t0_dnn3/model_fn/dnn/hiddenlayer_0/Relu"
  input: "adanet/iteration_0/subnetwork_t0_dnn3/model_fn/dnn/hiddenlayer_1/kernel"
  attr {
    key: "T"
    value {
      type: DT_FLOAT
    }
  }
  attr {
    key: "_output_shapes"
    value {
      list {
        shape {
          dim {
            size: -1
          }
          dim {
            size: 64
          }
        }
      }
    }
  }
  attr {
    key: "transpose_a"
    value {
      b: false
    }
  }
  attr {
    key: "transpose_b"
    value {
      b: false
    }
  }
}
node {
  name: "adanet/iteration_0/subnetwork_t0_dnn3/model_fn/dnn/hiddenlayer_1/bias/ReadVariableOp"
  op: "ReadVariableOp"
  input: "adanet/iteration_0/subnetwork_t0_dnn3/model_fn/dnn/hiddenlayer_1/bias/part_0"
  attr {
    key: "_output_shapes"
    value {
      list {
        shape {
          dim {
            size: 64
          }
        }
      }
    }
  }
  attr {
    key: "dtype"
    value {
      type: DT_FLOAT
    }
  }
}
node {
  name: "adanet/iteration_0/subnetwork_t0_dnn3/model_fn/dnn/hiddenlayer_1/bias"
  op: "Identity"
  input: "adanet/iteration_0/subnetwork_t0_dnn3/model_fn/dnn/hiddenlayer_1/bias/ReadVariableOp"
  attr {
    key: "T"
    value {
      type: DT_FLOAT
    }
  }
  attr {
    key: "_output_shapes"
    value {
      list {
        shape {
          dim {
            size: 64
          }
        }
      }
    }
  }
}
node {
  name: "adanet/iteration_0/subnetwork_t0_dnn3/model_fn/dnn/hiddenlayer_1/BiasAdd"
  op: "BiasAdd"
  input: "adanet/iteration_0/subnetwork_t0_dnn3/model_fn/dnn/hiddenlayer_1/MatMul"
  input: "adanet/iteration_0/subnetwork_t0_dnn3/model_fn/dnn/hiddenlayer_1/bias"
  attr {
    key: "T"
    value {
      type: DT_FLOAT
    }
  }
  attr {
    key: "_output_shapes"
    value {
      list {
        shape {
          dim {
            size: -1
          }
          dim {
            size: 64
          }
        }
      }
    }
  }
  attr {
    key: "data_format"
    value {
      s: "NHWC"
    }
  }
}
node {
  name: "adanet/iteration_0/subnetwork_t0_dnn3/model_fn/dnn/hiddenlayer_1/Relu"
  op: "Relu"
  input: "adanet/iteration_0/subnetwork_t0_dnn3/model_fn/dnn/hiddenlayer_1/BiasAdd"
  attr {
    key: "T"
    value {
      type: DT_FLOAT
    }
  }
  attr {
    key: "_output_shapes"
    value {
      list {
        shape {
          dim {
            size: -1
          }
          dim {
            size: 64
          }
        }
      }
    }
  }
}
node {
  name: "adanet/iteration_0/subnetwork_t0_dnn3/model_fn/dnn/zero_fraction_1/Size"
  op: "Size"
  input: "adanet/iteration_0/subnetwork_t0_dnn3/model_fn/dnn/hiddenlayer_1/Relu"
  attr {
    key: "T"
    value {
      type: DT_FLOAT
    }
  }
  attr {
    key: "_output_shapes"
    value {
      list {
        shape {
        }
      }
    }
  }
  attr {
    key: "out_type"
    value {
      type: DT_INT64
    }
  }
}
node {
  name: "adanet/iteration_0/subnetwork_t0_dnn3/model_fn/dnn/zero_fraction_1/LessEqual/y"
  op: "Const"
  attr {
    key: "_output_shapes"
    value {
      list {
        shape {
        }
      }
    }
  }
  attr {
    key: "dtype"
    value {
      type: DT_INT64
    }
  }
  attr {
    key: "value"
    value {
      tensor {
        dtype: DT_INT64
        tensor_shape {
        }
        int64_val: 2147483647
      }
    }
  }
}
node {
  name: "adanet/iteration_0/subnetwork_t0_dnn3/model_fn/dnn/zero_fraction_1/LessEqual"
  op: "LessEqual"
  input: "adanet/iteration_0/subnetwork_t0_dnn3/model_fn/dnn/zero_fraction_1/Size"
  input: "adanet/iteration_0/subnetwork_t0_dnn3/model_fn/dnn/zero_fraction_1/LessEqual/y"
  attr {
    key: "T"
    value {
      type: DT_INT64
    }
  }
  attr {
    key: "_output_shapes"
    value {
      list {
        shape {
        }
      }
    }
  }
}
node {
  name: "adanet/iteration_0/subnetwork_t0_dnn3/model_fn/dnn/zero_fraction_1/cond/Switch"
  op: "Switch"
  input: "adanet/iteration_0/subnetwork_t0_dnn3/model_fn/dnn/zero_fraction_1/LessEqual"
  input: "adanet/iteration_0/subnetwork_t0_dnn3/model_fn/dnn/zero_fraction_1/LessEqual"
  attr {
    key: "T"
    value {
      type: DT_BOOL
    }
  }
  attr {
    key: "_output_shapes"
    value {
      list {
        shape {
        }
        shape {
        }
      }
    }
  }
}
node {
  name: "adanet/iteration_0/subnetwork_t0_dnn3/model_fn/dnn/zero_fraction_1/cond/switch_t"
  op: "Identity"
  input: "adanet/iteration_0/subnetwork_t0_dnn3/model_fn/dnn/zero_fraction_1/cond/Switch:1"
  attr {
    key: "T"
    value {
      type: DT_BOOL
    }
  }
  attr {
    key: "_output_shapes"
    value {
      list {
        shape {
        }
      }
    }
  }
}
node {
  name: "adanet/iteration_0/subnetwork_t0_dnn3/model_fn/dnn/zero_fraction_1/cond/switch_f"
  op: "Identity"
  input: "adanet/iteration_0/subnetwork_t0_dnn3/model_fn/dnn/zero_fraction_1/cond/Switch"
  attr {
    key: "T"
    value {
      type: DT_BOOL
    }
  }
  attr {
    key: "_output_shapes"
    value {
      list {
        shape {
        }
      }
    }
  }
}
node {
  name: "adanet/iteration_0/subnetwork_t0_dnn3/model_fn/dnn/zero_fraction_1/cond/pred_id"
  op: "Identity"
  input: "adanet/iteration_0/subnetwork_t0_dnn3/model_fn/dnn/zero_fraction_1/LessEqual"
  attr {
    key: "T"
    value {
      type: DT_BOOL
    }
  }
  attr {
    key: "_output_shapes"
    value {
      list {
        shape {
        }
      }
    }
  }
}
node {
  name: "adanet/iteration_0/subnetwork_t0_dnn3/model_fn/dnn/zero_fraction_1/cond/count_nonzero/zeros"
  op: "Const"
  input: "^adanet/iteration_0/subnetwork_t0_dnn3/model_fn/dnn/zero_fraction_1/cond/switch_t"
  attr {
    key: "_output_shapes"
    value {
      list {
        shape {
        }
      }
    }
  }
  attr {
    key: "dtype"
    value {
      type: DT_FLOAT
    }
  }
  attr {
    key: "value"
    value {
      tensor {
        dtype: DT_FLOAT
        tensor_shape {
        }
        float_val: 0.0
      }
    }
  }
}
node {
  name: "adanet/iteration_0/subnetwork_t0_dnn3/model_fn/dnn/zero_fraction_1/cond/count_nonzero/NotEqual"
  op: "NotEqual"
  input: "adanet/iteration_0/subnetwork_t0_dnn3/model_fn/dnn/zero_fraction_1/cond/count_nonzero/NotEqual/Switch:1"
  input: "adanet/iteration_0/subnetwork_t0_dnn3/model_fn/dnn/zero_fraction_1/cond/count_nonzero/zeros"
  attr {
    key: "T"
    value {
      type: DT_FLOAT
    }
  }
  attr {
    key: "_output_shapes"
    value {
      list {
        shape {
          dim {
            size: -1
          }
          dim {
            size: 64
          }
        }
      }
    }
  }
}
node {
  name: "adanet/iteration_0/subnetwork_t0_dnn3/model_fn/dnn/zero_fraction_1/cond/count_nonzero/NotEqual/Switch"
  op: "Switch"
  input: "adanet/iteration_0/subnetwork_t0_dnn3/model_fn/dnn/hiddenlayer_1/Relu"
  input: "adanet/iteration_0/subnetwork_t0_dnn3/model_fn/dnn/zero_fraction_1/cond/pred_id"
  attr {
    key: "T"
    value {
      type: DT_FLOAT
    }
  }
  attr {
    key: "_class"
    value {
      list {
        s: "loc:@adanet/iteration_0/subnetwork_t0_dnn3/model_fn/dnn/hiddenlayer_1/Relu"
      }
    }
  }
  attr {
    key: "_output_shapes"
    value {
      list {
        shape {
          dim {
            size: -1
          }
          dim {
            size: 64
          }
        }
        shape {
          dim {
            size: -1
          }
          dim {
            size: 64
          }
        }
      }
    }
  }
}
node {
  name: "adanet/iteration_0/subnetwork_t0_dnn3/model_fn/dnn/zero_fraction_1/cond/count_nonzero/Cast"
  op: "Cast"
  input: "adanet/iteration_0/subnetwork_t0_dnn3/model_fn/dnn/zero_fraction_1/cond/count_nonzero/NotEqual"
  attr {
    key: "DstT"
    value {
      type: DT_INT32
    }
  }
  attr {
    key: "SrcT"
    value {
      type: DT_BOOL
    }
  }
  attr {
    key: "Truncate"
    value {
      b: false
    }
  }
  attr {
    key: "_output_shapes"
    value {
      list {
        shape {
          dim {
            size: -1
          }
          dim {
            size: 64
          }
        }
      }
    }
  }
}
node {
  name: "adanet/iteration_0/subnetwork_t0_dnn3/model_fn/dnn/zero_fraction_1/cond/count_nonzero/Const"
  op: "Const"
  input: "^adanet/iteration_0/subnetwork_t0_dnn3/model_fn/dnn/zero_fraction_1/cond/switch_t"
  attr {
    key: "_output_shapes"
    value {
      list {
        shape {
          dim {
            size: 2
          }
        }
      }
    }
  }
  attr {
    key: "dtype"
    value {
      type: DT_INT32
    }
  }
  attr {
    key: "value"
    value {
      tensor {
        dtype: DT_INT32
        tensor_shape {
          dim {
            size: 2
          }
        }
        tensor_content: "\000\000\000\000\001\000\000\000"
      }
    }
  }
}
node {
  name: "adanet/iteration_0/subnetwork_t0_dnn3/model_fn/dnn/zero_fraction_1/cond/count_nonzero/nonzero_count"
  op: "Sum"
  input: "adanet/iteration_0/subnetwork_t0_dnn3/model_fn/dnn/zero_fraction_1/cond/count_nonzero/Cast"
  input: "adanet/iteration_0/subnetwork_t0_dnn3/model_fn/dnn/zero_fraction_1/cond/count_nonzero/Const"
  attr {
    key: "T"
    value {
      type: DT_INT32
    }
  }
  attr {
    key: "Tidx"
    value {
      type: DT_INT32
    }
  }
  attr {
    key: "_output_shapes"
    value {
      list {
        shape {
        }
      }
    }
  }
  attr {
    key: "keep_dims"
    value {
      b: false
    }
  }
}
node {
  name: "adanet/iteration_0/subnetwork_t0_dnn3/model_fn/dnn/zero_fraction_1/cond/Cast"
  op: "Cast"
  input: "adanet/iteration_0/subnetwork_t0_dnn3/model_fn/dnn/zero_fraction_1/cond/count_nonzero/nonzero_count"
  attr {
    key: "DstT"
    value {
      type: DT_INT64
    }
  }
  attr {
    key: "SrcT"
    value {
      type: DT_INT32
    }
  }
  attr {
    key: "Truncate"
    value {
      b: false
    }
  }
  attr {
    key: "_output_shapes"
    value {
      list {
        shape {
        }
      }
    }
  }
}
node {
  name: "adanet/iteration_0/subnetwork_t0_dnn3/model_fn/dnn/zero_fraction_1/cond/count_nonzero_1/zeros"
  op: "Const"
  input: "^adanet/iteration_0/subnetwork_t0_dnn3/model_fn/dnn/zero_fraction_1/cond/switch_f"
  attr {
    key: "_output_shapes"
    value {
      list {
        shape {
        }
      }
    }
  }
  attr {
    key: "dtype"
    value {
      type: DT_FLOAT
    }
  }
  attr {
    key: "value"
    value {
      tensor {
        dtype: DT_FLOAT
        tensor_shape {
        }
        float_val: 0.0
      }
    }
  }
}
node {
  name: "adanet/iteration_0/subnetwork_t0_dnn3/model_fn/dnn/zero_fraction_1/cond/count_nonzero_1/NotEqual"
  op: "NotEqual"
  input: "adanet/iteration_0/subnetwork_t0_dnn3/model_fn/dnn/zero_fraction_1/cond/count_nonzero_1/NotEqual/Switch"
  input: "adanet/iteration_0/subnetwork_t0_dnn3/model_fn/dnn/zero_fraction_1/cond/count_nonzero_1/zeros"
  attr {
    key: "T"
    value {
      type: DT_FLOAT
    }
  }
  attr {
    key: "_output_shapes"
    value {
      list {
        shape {
          dim {
            size: -1
          }
          dim {
            size: 64
          }
        }
      }
    }
  }
}
node {
  name: "adanet/iteration_0/subnetwork_t0_dnn3/model_fn/dnn/zero_fraction_1/cond/count_nonzero_1/NotEqual/Switch"
  op: "Switch"
  input: "adanet/iteration_0/subnetwork_t0_dnn3/model_fn/dnn/hiddenlayer_1/Relu"
  input: "adanet/iteration_0/subnetwork_t0_dnn3/model_fn/dnn/zero_fraction_1/cond/pred_id"
  attr {
    key: "T"
    value {
      type: DT_FLOAT
    }
  }
  attr {
    key: "_class"
    value {
      list {
        s: "loc:@adanet/iteration_0/subnetwork_t0_dnn3/model_fn/dnn/hiddenlayer_1/Relu"
      }
    }
  }
  attr {
    key: "_output_shapes"
    value {
      list {
        shape {
          dim {
            size: -1
          }
          dim {
            size: 64
          }
        }
        shape {
          dim {
            size: -1
          }
          dim {
            size: 64
          }
        }
      }
    }
  }
}
node {
  name: "adanet/iteration_0/subnetwork_t0_dnn3/model_fn/dnn/zero_fraction_1/cond/count_nonzero_1/Cast"
  op: "Cast"
  input: "adanet/iteration_0/subnetwork_t0_dnn3/model_fn/dnn/zero_fraction_1/cond/count_nonzero_1/NotEqual"
  attr {
    key: "DstT"
    value {
      type: DT_INT64
    }
  }
  attr {
    key: "SrcT"
    value {
      type: DT_BOOL
    }
  }
  attr {
    key: "Truncate"
    value {
      b: false
    }
  }
  attr {
    key: "_output_shapes"
    value {
      list {
        shape {
          dim {
            size: -1
          }
          dim {
            size: 64
          }
        }
      }
    }
  }
}
node {
  name: "adanet/iteration_0/subnetwork_t0_dnn3/model_fn/dnn/zero_fraction_1/cond/count_nonzero_1/Const"
  op: "Const"
  input: "^adanet/iteration_0/subnetwork_t0_dnn3/model_fn/dnn/zero_fraction_1/cond/switch_f"
  attr {
    key: "_output_shapes"
    value {
      list {
        shape {
          dim {
            size: 2
          }
        }
      }
    }
  }
  attr {
    key: "dtype"
    value {
      type: DT_INT32
    }
  }
  attr {
    key: "value"
    value {
      tensor {
        dtype: DT_INT32
        tensor_shape {
          dim {
            size: 2
          }
        }
        tensor_content: "\000\000\000\000\001\000\000\000"
      }
    }
  }
}
node {
  name: "adanet/iteration_0/subnetwork_t0_dnn3/model_fn/dnn/zero_fraction_1/cond/count_nonzero_1/nonzero_count"
  op: "Sum"
  input: "adanet/iteration_0/subnetwork_t0_dnn3/model_fn/dnn/zero_fraction_1/cond/count_nonzero_1/Cast"
  input: "adanet/iteration_0/subnetwork_t0_dnn3/model_fn/dnn/zero_fraction_1/cond/count_nonzero_1/Const"
  attr {
    key: "T"
    value {
      type: DT_INT64
    }
  }
  attr {
    key: "Tidx"
    value {
      type: DT_INT32
    }
  }
  attr {
    key: "_output_shapes"
    value {
      list {
        shape {
        }
      }
    }
  }
  attr {
    key: "keep_dims"
    value {
      b: false
    }
  }
}
node {
  name: "adanet/iteration_0/subnetwork_t0_dnn3/model_fn/dnn/zero_fraction_1/cond/Merge"
  op: "Merge"
  input: "adanet/iteration_0/subnetwork_t0_dnn3/model_fn/dnn/zero_fraction_1/cond/count_nonzero_1/nonzero_count"
  input: "adanet/iteration_0/subnetwork_t0_dnn3/model_fn/dnn/zero_fraction_1/cond/Cast"
  attr {
    key: "N"
    value {
      i: 2
    }
  }
  attr {
    key: "T"
    value {
      type: DT_INT64
    }
  }
  attr {
    key: "_output_shapes"
    value {
      list {
        shape {
        }
        shape {
        }
      }
    }
  }
}
node {
  name: "adanet/iteration_0/subnetwork_t0_dnn3/model_fn/dnn/zero_fraction_1/counts_to_fraction/sub"
  op: "Sub"
  input: "adanet/iteration_0/subnetwork_t0_dnn3/model_fn/dnn/zero_fraction_1/Size"
  input: "adanet/iteration_0/subnetwork_t0_dnn3/model_fn/dnn/zero_fraction_1/cond/Merge"
  attr {
    key: "T"
    value {
      type: DT_INT64
    }
  }
  attr {
    key: "_output_shapes"
    value {
      list {
        shape {
        }
      }
    }
  }
}
node {
  name: "adanet/iteration_0/subnetwork_t0_dnn3/model_fn/dnn/zero_fraction_1/counts_to_fraction/Cast"
  op: "Cast"
  input: "adanet/iteration_0/subnetwork_t0_dnn3/model_fn/dnn/zero_fraction_1/counts_to_fraction/sub"
  attr {
    key: "DstT"
    value {
      type: DT_FLOAT
    }
  }
  attr {
    key: "SrcT"
    value {
      type: DT_INT64
    }
  }
  attr {
    key: "Truncate"
    value {
      b: false
    }
  }
  attr {
    key: "_output_shapes"
    value {
      list {
        shape {
        }
      }
    }
  }
}
node {
  name: "adanet/iteration_0/subnetwork_t0_dnn3/model_fn/dnn/zero_fraction_1/counts_to_fraction/Cast_1"
  op: "Cast"
  input: "adanet/iteration_0/subnetwork_t0_dnn3/model_fn/dnn/zero_fraction_1/Size"
  attr {
    key: "DstT"
    value {
      type: DT_FLOAT
    }
  }
  attr {
    key: "SrcT"
    value {
      type: DT_INT64
    }
  }
  attr {
    key: "Truncate"
    value {
      b: false
    }
  }
  attr {
    key: "_output_shapes"
    value {
      list {
        shape {
        }
      }
    }
  }
}
node {
  name: "adanet/iteration_0/subnetwork_t0_dnn3/model_fn/dnn/zero_fraction_1/counts_to_fraction/truediv"
  op: "RealDiv"
  input: "adanet/iteration_0/subnetwork_t0_dnn3/model_fn/dnn/zero_fraction_1/counts_to_fraction/Cast"
  input: "adanet/iteration_0/subnetwork_t0_dnn3/model_fn/dnn/zero_fraction_1/counts_to_fraction/Cast_1"
  attr {
    key: "T"
    value {
      type: DT_FLOAT
    }
  }
  attr {
    key: "_output_shapes"
    value {
      list {
        shape {
        }
      }
    }
  }
}
node {
  name: "adanet/iteration_0/subnetwork_t0_dnn3/model_fn/dnn/zero_fraction_1/fraction"
  op: "Identity"
  input: "adanet/iteration_0/subnetwork_t0_dnn3/model_fn/dnn/zero_fraction_1/counts_to_fraction/truediv"
  attr {
    key: "T"
    value {
      type: DT_FLOAT
    }
  }
  attr {
    key: "_output_shapes"
    value {
      list {
        shape {
        }
      }
    }
  }
}
node {
  name: "adanet/iteration_0/subnetwork_t0_dnn3/model_fn/dnn/Const_2"
  op: "Const"
  attr {
    key: "_output_shapes"
    value {
      list {
        shape {
        }
      }
    }
  }
  attr {
    key: "dtype"
    value {
      type: DT_STRING
    }
  }
  attr {
    key: "value"
    value {
      tensor {
        dtype: DT_STRING
        tensor_shape {
        }
        string_val: ""
      }
    }
  }
}
node {
  name: "adanet/iteration_0/subnetwork_t0_dnn3/model_fn/dnn/Const_3"
  op: "Const"
  attr {
    key: "_output_shapes"
    value {
      list {
        shape {
        }
      }
    }
  }
  attr {
    key: "dtype"
    value {
      type: DT_STRING
    }
  }
  attr {
    key: "value"
    value {
      tensor {
        dtype: DT_STRING
        tensor_shape {
        }
        string_val: ""
      }
    }
  }
}
node {
  name: "adanet/iteration_0/subnetwork_t0_dnn3/model_fn/dnn/hiddenlayer_2/kernel/part_0/Initializer/random_uniform/shape"
  op: "Const"
  attr {
    key: "_class"
    value {
      list {
        s: "loc:@adanet/iteration_0/subnetwork_t0_dnn3/model_fn/dnn/hiddenlayer_2/kernel/part_0"
      }
    }
  }
  attr {
    key: "_output_shapes"
    value {
      list {
        shape {
          dim {
            size: 2
          }
        }
      }
    }
  }
  attr {
    key: "dtype"
    value {
      type: DT_INT32
    }
  }
  attr {
    key: "value"
    value {
      tensor {
        dtype: DT_INT32
        tensor_shape {
          dim {
            size: 2
          }
        }
        tensor_content: "@\000\000\000@\000\000\000"
      }
    }
  }
}
node {
  name: "adanet/iteration_0/subnetwork_t0_dnn3/model_fn/dnn/hiddenlayer_2/kernel/part_0/Initializer/random_uniform/min"
  op: "Const"
  attr {
    key: "_class"
    value {
      list {
        s: "loc:@adanet/iteration_0/subnetwork_t0_dnn3/model_fn/dnn/hiddenlayer_2/kernel/part_0"
      }
    }
  }
  attr {
    key: "_output_shapes"
    value {
      list {
        shape {
        }
      }
    }
  }
  attr {
    key: "dtype"
    value {
      type: DT_FLOAT
    }
  }
  attr {
    key: "value"
    value {
      tensor {
        dtype: DT_FLOAT
        tensor_shape {
        }
        float_val: -0.21650634706020355
      }
    }
  }
}
node {
  name: "adanet/iteration_0/subnetwork_t0_dnn3/model_fn/dnn/hiddenlayer_2/kernel/part_0/Initializer/random_uniform/max"
  op: "Const"
  attr {
    key: "_class"
    value {
      list {
        s: "loc:@adanet/iteration_0/subnetwork_t0_dnn3/model_fn/dnn/hiddenlayer_2/kernel/part_0"
      }
    }
  }
  attr {
    key: "_output_shapes"
    value {
      list {
        shape {
        }
      }
    }
  }
  attr {
    key: "dtype"
    value {
      type: DT_FLOAT
    }
  }
  attr {
    key: "value"
    value {
      tensor {
        dtype: DT_FLOAT
        tensor_shape {
        }
        float_val: 0.21650634706020355
      }
    }
  }
}
node {
  name: "adanet/iteration_0/subnetwork_t0_dnn3/model_fn/dnn/hiddenlayer_2/kernel/part_0/Initializer/random_uniform/RandomUniform"
  op: "RandomUniform"
  input: "adanet/iteration_0/subnetwork_t0_dnn3/model_fn/dnn/hiddenlayer_2/kernel/part_0/Initializer/random_uniform/shape"
  attr {
    key: "T"
    value {
      type: DT_INT32
    }
  }
  attr {
    key: "_class"
    value {
      list {
        s: "loc:@adanet/iteration_0/subnetwork_t0_dnn3/model_fn/dnn/hiddenlayer_2/kernel/part_0"
      }
    }
  }
  attr {
    key: "_output_shapes"
    value {
      list {
        shape {
          dim {
            size: 64
          }
          dim {
            size: 64
          }
        }
      }
    }
  }
  attr {
    key: "dtype"
    value {
      type: DT_FLOAT
    }
  }
  attr {
    key: "seed"
    value {
      i: 0
    }
  }
  attr {
    key: "seed2"
    value {
      i: 0
    }
  }
}
node {
  name: "adanet/iteration_0/subnetwork_t0_dnn3/model_fn/dnn/hiddenlayer_2/kernel/part_0/Initializer/random_uniform/sub"
  op: "Sub"
  input: "adanet/iteration_0/subnetwork_t0_dnn3/model_fn/dnn/hiddenlayer_2/kernel/part_0/Initializer/random_uniform/max"
  input: "adanet/iteration_0/subnetwork_t0_dnn3/model_fn/dnn/hiddenlayer_2/kernel/part_0/Initializer/random_uniform/min"
  attr {
    key: "T"
    value {
      type: DT_FLOAT
    }
  }
  attr {
    key: "_class"
    value {
      list {
        s: "loc:@adanet/iteration_0/subnetwork_t0_dnn3/model_fn/dnn/hiddenlayer_2/kernel/part_0"
      }
    }
  }
  attr {
    key: "_output_shapes"
    value {
      list {
        shape {
        }
      }
    }
  }
}
node {
  name: "adanet/iteration_0/subnetwork_t0_dnn3/model_fn/dnn/hiddenlayer_2/kernel/part_0/Initializer/random_uniform/mul"
  op: "Mul"
  input: "adanet/iteration_0/subnetwork_t0_dnn3/model_fn/dnn/hiddenlayer_2/kernel/part_0/Initializer/random_uniform/RandomUniform"
  input: "adanet/iteration_0/subnetwork_t0_dnn3/model_fn/dnn/hiddenlayer_2/kernel/part_0/Initializer/random_uniform/sub"
  attr {
    key: "T"
    value {
      type: DT_FLOAT
    }
  }
  attr {
    key: "_class"
    value {
      list {
        s: "loc:@adanet/iteration_0/subnetwork_t0_dnn3/model_fn/dnn/hiddenlayer_2/kernel/part_0"
      }
    }
  }
  attr {
    key: "_output_shapes"
    value {
      list {
        shape {
          dim {
            size: 64
          }
          dim {
            size: 64
          }
        }
      }
    }
  }
}
node {
  name: "adanet/iteration_0/subnetwork_t0_dnn3/model_fn/dnn/hiddenlayer_2/kernel/part_0/Initializer/random_uniform"
  op: "Add"
  input: "adanet/iteration_0/subnetwork_t0_dnn3/model_fn/dnn/hiddenlayer_2/kernel/part_0/Initializer/random_uniform/mul"
  input: "adanet/iteration_0/subnetwork_t0_dnn3/model_fn/dnn/hiddenlayer_2/kernel/part_0/Initializer/random_uniform/min"
  attr {
    key: "T"
    value {
      type: DT_FLOAT
    }
  }
  attr {
    key: "_class"
    value {
      list {
        s: "loc:@adanet/iteration_0/subnetwork_t0_dnn3/model_fn/dnn/hiddenlayer_2/kernel/part_0"
      }
    }
  }
  attr {
    key: "_output_shapes"
    value {
      list {
        shape {
          dim {
            size: 64
          }
          dim {
            size: 64
          }
        }
      }
    }
  }
}
node {
  name: "adanet/iteration_0/subnetwork_t0_dnn3/model_fn/dnn/hiddenlayer_2/kernel/part_0"
  op: "VarHandleOp"
  attr {
    key: "_class"
    value {
      list {
        s: "loc:@adanet/iteration_0/subnetwork_t0_dnn3/model_fn/dnn/hiddenlayer_2/kernel/part_0"
      }
    }
  }
  attr {
    key: "_output_shapes"
    value {
      list {
        shape {
        }
      }
    }
  }
  attr {
    key: "container"
    value {
      s: ""
    }
  }
  attr {
    key: "dtype"
    value {
      type: DT_FLOAT
    }
  }
  attr {
    key: "shape"
    value {
      shape {
        dim {
          size: 64
        }
        dim {
          size: 64
        }
      }
    }
  }
  attr {
    key: "shared_name"
    value {
      s: "adanet/iteration_0/subnetwork_t0_dnn3/model_fn/dnn/hiddenlayer_2/kernel/part_0"
    }
  }
}
node {
  name: "adanet/iteration_0/subnetwork_t0_dnn3/model_fn/dnn/hiddenlayer_2/kernel/part_0/IsInitialized/VarIsInitializedOp"
  op: "VarIsInitializedOp"
  input: "adanet/iteration_0/subnetwork_t0_dnn3/model_fn/dnn/hiddenlayer_2/kernel/part_0"
  attr {
    key: "_output_shapes"
    value {
      list {
        shape {
        }
      }
    }
  }
}
node {
  name: "adanet/iteration_0/subnetwork_t0_dnn3/model_fn/dnn/hiddenlayer_2/kernel/part_0/Assign"
  op: "AssignVariableOp"
  input: "adanet/iteration_0/subnetwork_t0_dnn3/model_fn/dnn/hiddenlayer_2/kernel/part_0"
  input: "adanet/iteration_0/subnetwork_t0_dnn3/model_fn/dnn/hiddenlayer_2/kernel/part_0/Initializer/random_uniform"
  attr {
    key: "_class"
    value {
      list {
        s: "loc:@adanet/iteration_0/subnetwork_t0_dnn3/model_fn/dnn/hiddenlayer_2/kernel/part_0"
      }
    }
  }
  attr {
    key: "dtype"
    value {
      type: DT_FLOAT
    }
  }
}
node {
  name: "adanet/iteration_0/subnetwork_t0_dnn3/model_fn/dnn/hiddenlayer_2/kernel/part_0/Read/ReadVariableOp"
  op: "ReadVariableOp"
  input: "adanet/iteration_0/subnetwork_t0_dnn3/model_fn/dnn/hiddenlayer_2/kernel/part_0"
  attr {
    key: "_class"
    value {
      list {
        s: "loc:@adanet/iteration_0/subnetwork_t0_dnn3/model_fn/dnn/hiddenlayer_2/kernel/part_0"
      }
    }
  }
  attr {
    key: "_output_shapes"
    value {
      list {
        shape {
          dim {
            size: 64
          }
          dim {
            size: 64
          }
        }
      }
    }
  }
  attr {
    key: "dtype"
    value {
      type: DT_FLOAT
    }
  }
}
node {
  name: "adanet/iteration_0/subnetwork_t0_dnn3/model_fn/dnn/hiddenlayer_2/bias/part_0/Initializer/zeros"
  op: "Const"
  attr {
    key: "_class"
    value {
      list {
        s: "loc:@adanet/iteration_0/subnetwork_t0_dnn3/model_fn/dnn/hiddenlayer_2/bias/part_0"
      }
    }
  }
  attr {
    key: "_output_shapes"
    value {
      list {
        shape {
          dim {
            size: 64
          }
        }
      }
    }
  }
  attr {
    key: "dtype"
    value {
      type: DT_FLOAT
    }
  }
  attr {
    key: "value"
    value {
      tensor {
        dtype: DT_FLOAT
        tensor_shape {
          dim {
            size: 64
          }
        }
        float_val: 0.0
      }
    }
  }
}
node {
  name: "adanet/iteration_0/subnetwork_t0_dnn3/model_fn/dnn/hiddenlayer_2/bias/part_0"
  op: "VarHandleOp"
  attr {
    key: "_class"
    value {
      list {
        s: "loc:@adanet/iteration_0/subnetwork_t0_dnn3/model_fn/dnn/hiddenlayer_2/bias/part_0"
      }
    }
  }
  attr {
    key: "_output_shapes"
    value {
      list {
        shape {
        }
      }
    }
  }
  attr {
    key: "container"
    value {
      s: ""
    }
  }
  attr {
    key: "dtype"
    value {
      type: DT_FLOAT
    }
  }
  attr {
    key: "shape"
    value {
      shape {
        dim {
          size: 64
        }
      }
    }
  }
  attr {
    key: "shared_name"
    value {
      s: "adanet/iteration_0/subnetwork_t0_dnn3/model_fn/dnn/hiddenlayer_2/bias/part_0"
    }
  }
}
node {
  name: "adanet/iteration_0/subnetwork_t0_dnn3/model_fn/dnn/hiddenlayer_2/bias/part_0/IsInitialized/VarIsInitializedOp"
  op: "VarIsInitializedOp"
  input: "adanet/iteration_0/subnetwork_t0_dnn3/model_fn/dnn/hiddenlayer_2/bias/part_0"
  attr {
    key: "_output_shapes"
    value {
      list {
        shape {
        }
      }
    }
  }
}
node {
  name: "adanet/iteration_0/subnetwork_t0_dnn3/model_fn/dnn/hiddenlayer_2/bias/part_0/Assign"
  op: "AssignVariableOp"
  input: "adanet/iteration_0/subnetwork_t0_dnn3/model_fn/dnn/hiddenlayer_2/bias/part_0"
  input: "adanet/iteration_0/subnetwork_t0_dnn3/model_fn/dnn/hiddenlayer_2/bias/part_0/Initializer/zeros"
  attr {
    key: "_class"
    value {
      list {
        s: "loc:@adanet/iteration_0/subnetwork_t0_dnn3/model_fn/dnn/hiddenlayer_2/bias/part_0"
      }
    }
  }
  attr {
    key: "dtype"
    value {
      type: DT_FLOAT
    }
  }
}
node {
  name: "adanet/iteration_0/subnetwork_t0_dnn3/model_fn/dnn/hiddenlayer_2/bias/part_0/Read/ReadVariableOp"
  op: "ReadVariableOp"
  input: "adanet/iteration_0/subnetwork_t0_dnn3/model_fn/dnn/hiddenlayer_2/bias/part_0"
  attr {
    key: "_class"
    value {
      list {
        s: "loc:@adanet/iteration_0/subnetwork_t0_dnn3/model_fn/dnn/hiddenlayer_2/bias/part_0"
      }
    }
  }
  attr {
    key: "_output_shapes"
    value {
      list {
        shape {
          dim {
            size: 64
          }
        }
      }
    }
  }
  attr {
    key: "dtype"
    value {
      type: DT_FLOAT
    }
  }
}
node {
  name: "adanet/iteration_0/subnetwork_t0_dnn3/model_fn/dnn/hiddenlayer_2/kernel/ReadVariableOp"
  op: "ReadVariableOp"
  input: "adanet/iteration_0/subnetwork_t0_dnn3/model_fn/dnn/hiddenlayer_2/kernel/part_0"
  attr {
    key: "_output_shapes"
    value {
      list {
        shape {
          dim {
            size: 64
          }
          dim {
            size: 64
          }
        }
      }
    }
  }
  attr {
    key: "dtype"
    value {
      type: DT_FLOAT
    }
  }
}
node {
  name: "adanet/iteration_0/subnetwork_t0_dnn3/model_fn/dnn/hiddenlayer_2/kernel"
  op: "Identity"
  input: "adanet/iteration_0/subnetwork_t0_dnn3/model_fn/dnn/hiddenlayer_2/kernel/ReadVariableOp"
  attr {
    key: "T"
    value {
      type: DT_FLOAT
    }
  }
  attr {
    key: "_output_shapes"
    value {
      list {
        shape {
          dim {
            size: 64
          }
          dim {
            size: 64
          }
        }
      }
    }
  }
}
node {
  name: "adanet/iteration_0/subnetwork_t0_dnn3/model_fn/dnn/hiddenlayer_2/MatMul"
  op: "MatMul"
  input: "adanet/iteration_0/subnetwork_t0_dnn3/model_fn/dnn/hiddenlayer_1/Relu"
  input: "adanet/iteration_0/subnetwork_t0_dnn3/model_fn/dnn/hiddenlayer_2/kernel"
  attr {
    key: "T"
    value {
      type: DT_FLOAT
    }
  }
  attr {
    key: "_output_shapes"
    value {
      list {
        shape {
          dim {
            size: -1
          }
          dim {
            size: 64
          }
        }
      }
    }
  }
  attr {
    key: "transpose_a"
    value {
      b: false
    }
  }
  attr {
    key: "transpose_b"
    value {
      b: false
    }
  }
}
node {
  name: "adanet/iteration_0/subnetwork_t0_dnn3/model_fn/dnn/hiddenlayer_2/bias/ReadVariableOp"
  op: "ReadVariableOp"
  input: "adanet/iteration_0/subnetwork_t0_dnn3/model_fn/dnn/hiddenlayer_2/bias/part_0"
  attr {
    key: "_output_shapes"
    value {
      list {
        shape {
          dim {
            size: 64
          }
        }
      }
    }
  }
  attr {
    key: "dtype"
    value {
      type: DT_FLOAT
    }
  }
}
node {
  name: "adanet/iteration_0/subnetwork_t0_dnn3/model_fn/dnn/hiddenlayer_2/bias"
  op: "Identity"
  input: "adanet/iteration_0/subnetwork_t0_dnn3/model_fn/dnn/hiddenlayer_2/bias/ReadVariableOp"
  attr {
    key: "T"
    value {
      type: DT_FLOAT
    }
  }
  attr {
    key: "_output_shapes"
    value {
      list {
        shape {
          dim {
            size: 64
          }
        }
      }
    }
  }
}
node {
  name: "adanet/iteration_0/subnetwork_t0_dnn3/model_fn/dnn/hiddenlayer_2/BiasAdd"
  op: "BiasAdd"
  input: "adanet/iteration_0/subnetwork_t0_dnn3/model_fn/dnn/hiddenlayer_2/MatMul"
  input: "adanet/iteration_0/subnetwork_t0_dnn3/model_fn/dnn/hiddenlayer_2/bias"
  attr {
    key: "T"
    value {
      type: DT_FLOAT
    }
  }
  attr {
    key: "_output_shapes"
    value {
      list {
        shape {
          dim {
            size: -1
          }
          dim {
            size: 64
          }
        }
      }
    }
  }
  attr {
    key: "data_format"
    value {
      s: "NHWC"
    }
  }
}
node {
  name: "adanet/iteration_0/subnetwork_t0_dnn3/model_fn/dnn/hiddenlayer_2/Relu"
  op: "Relu"
  input: "adanet/iteration_0/subnetwork_t0_dnn3/model_fn/dnn/hiddenlayer_2/BiasAdd"
  attr {
    key: "T"
    value {
      type: DT_FLOAT
    }
  }
  attr {
    key: "_output_shapes"
    value {
      list {
        shape {
          dim {
            size: -1
          }
          dim {
            size: 64
          }
        }
      }
    }
  }
}
node {
  name: "adanet/iteration_0/subnetwork_t0_dnn3/model_fn/dnn/zero_fraction_2/Size"
  op: "Size"
  input: "adanet/iteration_0/subnetwork_t0_dnn3/model_fn/dnn/hiddenlayer_2/Relu"
  attr {
    key: "T"
    value {
      type: DT_FLOAT
    }
  }
  attr {
    key: "_output_shapes"
    value {
      list {
        shape {
        }
      }
    }
  }
  attr {
    key: "out_type"
    value {
      type: DT_INT64
    }
  }
}
node {
  name: "adanet/iteration_0/subnetwork_t0_dnn3/model_fn/dnn/zero_fraction_2/LessEqual/y"
  op: "Const"
  attr {
    key: "_output_shapes"
    value {
      list {
        shape {
        }
      }
    }
  }
  attr {
    key: "dtype"
    value {
      type: DT_INT64
    }
  }
  attr {
    key: "value"
    value {
      tensor {
        dtype: DT_INT64
        tensor_shape {
        }
        int64_val: 2147483647
      }
    }
  }
}
node {
  name: "adanet/iteration_0/subnetwork_t0_dnn3/model_fn/dnn/zero_fraction_2/LessEqual"
  op: "LessEqual"
  input: "adanet/iteration_0/subnetwork_t0_dnn3/model_fn/dnn/zero_fraction_2/Size"
  input: "adanet/iteration_0/subnetwork_t0_dnn3/model_fn/dnn/zero_fraction_2/LessEqual/y"
  attr {
    key: "T"
    value {
      type: DT_INT64
    }
  }
  attr {
    key: "_output_shapes"
    value {
      list {
        shape {
        }
      }
    }
  }
}
node {
  name: "adanet/iteration_0/subnetwork_t0_dnn3/model_fn/dnn/zero_fraction_2/cond/Switch"
  op: "Switch"
  input: "adanet/iteration_0/subnetwork_t0_dnn3/model_fn/dnn/zero_fraction_2/LessEqual"
  input: "adanet/iteration_0/subnetwork_t0_dnn3/model_fn/dnn/zero_fraction_2/LessEqual"
  attr {
    key: "T"
    value {
      type: DT_BOOL
    }
  }
  attr {
    key: "_output_shapes"
    value {
      list {
        shape {
        }
        shape {
        }
      }
    }
  }
}
node {
  name: "adanet/iteration_0/subnetwork_t0_dnn3/model_fn/dnn/zero_fraction_2/cond/switch_t"
  op: "Identity"
  input: "adanet/iteration_0/subnetwork_t0_dnn3/model_fn/dnn/zero_fraction_2/cond/Switch:1"
  attr {
    key: "T"
    value {
      type: DT_BOOL
    }
  }
  attr {
    key: "_output_shapes"
    value {
      list {
        shape {
        }
      }
    }
  }
}
node {
  name: "adanet/iteration_0/subnetwork_t0_dnn3/model_fn/dnn/zero_fraction_2/cond/switch_f"
  op: "Identity"
  input: "adanet/iteration_0/subnetwork_t0_dnn3/model_fn/dnn/zero_fraction_2/cond/Switch"
  attr {
    key: "T"
    value {
      type: DT_BOOL
    }
  }
  attr {
    key: "_output_shapes"
    value {
      list {
        shape {
        }
      }
    }
  }
}
node {
  name: "adanet/iteration_0/subnetwork_t0_dnn3/model_fn/dnn/zero_fraction_2/cond/pred_id"
  op: "Identity"
  input: "adanet/iteration_0/subnetwork_t0_dnn3/model_fn/dnn/zero_fraction_2/LessEqual"
  attr {
    key: "T"
    value {
      type: DT_BOOL
    }
  }
  attr {
    key: "_output_shapes"
    value {
      list {
        shape {
        }
      }
    }
  }
}
node {
  name: "adanet/iteration_0/subnetwork_t0_dnn3/model_fn/dnn/zero_fraction_2/cond/count_nonzero/zeros"
  op: "Const"
  input: "^adanet/iteration_0/subnetwork_t0_dnn3/model_fn/dnn/zero_fraction_2/cond/switch_t"
  attr {
    key: "_output_shapes"
    value {
      list {
        shape {
        }
      }
    }
  }
  attr {
    key: "dtype"
    value {
      type: DT_FLOAT
    }
  }
  attr {
    key: "value"
    value {
      tensor {
        dtype: DT_FLOAT
        tensor_shape {
        }
        float_val: 0.0
      }
    }
  }
}
node {
  name: "adanet/iteration_0/subnetwork_t0_dnn3/model_fn/dnn/zero_fraction_2/cond/count_nonzero/NotEqual"
  op: "NotEqual"
  input: "adanet/iteration_0/subnetwork_t0_dnn3/model_fn/dnn/zero_fraction_2/cond/count_nonzero/NotEqual/Switch:1"
  input: "adanet/iteration_0/subnetwork_t0_dnn3/model_fn/dnn/zero_fraction_2/cond/count_nonzero/zeros"
  attr {
    key: "T"
    value {
      type: DT_FLOAT
    }
  }
  attr {
    key: "_output_shapes"
    value {
      list {
        shape {
          dim {
            size: -1
          }
          dim {
            size: 64
          }
        }
      }
    }
  }
}
node {
  name: "adanet/iteration_0/subnetwork_t0_dnn3/model_fn/dnn/zero_fraction_2/cond/count_nonzero/NotEqual/Switch"
  op: "Switch"
  input: "adanet/iteration_0/subnetwork_t0_dnn3/model_fn/dnn/hiddenlayer_2/Relu"
  input: "adanet/iteration_0/subnetwork_t0_dnn3/model_fn/dnn/zero_fraction_2/cond/pred_id"
  attr {
    key: "T"
    value {
      type: DT_FLOAT
    }
  }
  attr {
    key: "_class"
    value {
      list {
        s: "loc:@adanet/iteration_0/subnetwork_t0_dnn3/model_fn/dnn/hiddenlayer_2/Relu"
      }
    }
  }
  attr {
    key: "_output_shapes"
    value {
      list {
        shape {
          dim {
            size: -1
          }
          dim {
            size: 64
          }
        }
        shape {
          dim {
            size: -1
          }
          dim {
            size: 64
          }
        }
      }
    }
  }
}
node {
  name: "adanet/iteration_0/subnetwork_t0_dnn3/model_fn/dnn/zero_fraction_2/cond/count_nonzero/Cast"
  op: "Cast"
  input: "adanet/iteration_0/subnetwork_t0_dnn3/model_fn/dnn/zero_fraction_2/cond/count_nonzero/NotEqual"
  attr {
    key: "DstT"
    value {
      type: DT_INT32
    }
  }
  attr {
    key: "SrcT"
    value {
      type: DT_BOOL
    }
  }
  attr {
    key: "Truncate"
    value {
      b: false
    }
  }
  attr {
    key: "_output_shapes"
    value {
      list {
        shape {
          dim {
            size: -1
          }
          dim {
            size: 64
          }
        }
      }
    }
  }
}
node {
  name: "adanet/iteration_0/subnetwork_t0_dnn3/model_fn/dnn/zero_fraction_2/cond/count_nonzero/Const"
  op: "Const"
  input: "^adanet/iteration_0/subnetwork_t0_dnn3/model_fn/dnn/zero_fraction_2/cond/switch_t"
  attr {
    key: "_output_shapes"
    value {
      list {
        shape {
          dim {
            size: 2
          }
        }
      }
    }
  }
  attr {
    key: "dtype"
    value {
      type: DT_INT32
    }
  }
  attr {
    key: "value"
    value {
      tensor {
        dtype: DT_INT32
        tensor_shape {
          dim {
            size: 2
          }
        }
        tensor_content: "\000\000\000\000\001\000\000\000"
      }
    }
  }
}
node {
  name: "adanet/iteration_0/subnetwork_t0_dnn3/model_fn/dnn/zero_fraction_2/cond/count_nonzero/nonzero_count"
  op: "Sum"
  input: "adanet/iteration_0/subnetwork_t0_dnn3/model_fn/dnn/zero_fraction_2/cond/count_nonzero/Cast"
  input: "adanet/iteration_0/subnetwork_t0_dnn3/model_fn/dnn/zero_fraction_2/cond/count_nonzero/Const"
  attr {
    key: "T"
    value {
      type: DT_INT32
    }
  }
  attr {
    key: "Tidx"
    value {
      type: DT_INT32
    }
  }
  attr {
    key: "_output_shapes"
    value {
      list {
        shape {
        }
      }
    }
  }
  attr {
    key: "keep_dims"
    value {
      b: false
    }
  }
}
node {
  name: "adanet/iteration_0/subnetwork_t0_dnn3/model_fn/dnn/zero_fraction_2/cond/Cast"
  op: "Cast"
  input: "adanet/iteration_0/subnetwork_t0_dnn3/model_fn/dnn/zero_fraction_2/cond/count_nonzero/nonzero_count"
  attr {
    key: "DstT"
    value {
      type: DT_INT64
    }
  }
  attr {
    key: "SrcT"
    value {
      type: DT_INT32
    }
  }
  attr {
    key: "Truncate"
    value {
      b: false
    }
  }
  attr {
    key: "_output_shapes"
    value {
      list {
        shape {
        }
      }
    }
  }
}
node {
  name: "adanet/iteration_0/subnetwork_t0_dnn3/model_fn/dnn/zero_fraction_2/cond/count_nonzero_1/zeros"
  op: "Const"
  input: "^adanet/iteration_0/subnetwork_t0_dnn3/model_fn/dnn/zero_fraction_2/cond/switch_f"
  attr {
    key: "_output_shapes"
    value {
      list {
        shape {
        }
      }
    }
  }
  attr {
    key: "dtype"
    value {
      type: DT_FLOAT
    }
  }
  attr {
    key: "value"
    value {
      tensor {
        dtype: DT_FLOAT
        tensor_shape {
        }
        float_val: 0.0
      }
    }
  }
}
node {
  name: "adanet/iteration_0/subnetwork_t0_dnn3/model_fn/dnn/zero_fraction_2/cond/count_nonzero_1/NotEqual"
  op: "NotEqual"
  input: "adanet/iteration_0/subnetwork_t0_dnn3/model_fn/dnn/zero_fraction_2/cond/count_nonzero_1/NotEqual/Switch"
  input: "adanet/iteration_0/subnetwork_t0_dnn3/model_fn/dnn/zero_fraction_2/cond/count_nonzero_1/zeros"
  attr {
    key: "T"
    value {
      type: DT_FLOAT
    }
  }
  attr {
    key: "_output_shapes"
    value {
      list {
        shape {
          dim {
            size: -1
          }
          dim {
            size: 64
          }
        }
      }
    }
  }
}
node {
  name: "adanet/iteration_0/subnetwork_t0_dnn3/model_fn/dnn/zero_fraction_2/cond/count_nonzero_1/NotEqual/Switch"
  op: "Switch"
  input: "adanet/iteration_0/subnetwork_t0_dnn3/model_fn/dnn/hiddenlayer_2/Relu"
  input: "adanet/iteration_0/subnetwork_t0_dnn3/model_fn/dnn/zero_fraction_2/cond/pred_id"
  attr {
    key: "T"
    value {
      type: DT_FLOAT
    }
  }
  attr {
    key: "_class"
    value {
      list {
        s: "loc:@adanet/iteration_0/subnetwork_t0_dnn3/model_fn/dnn/hiddenlayer_2/Relu"
      }
    }
  }
  attr {
    key: "_output_shapes"
    value {
      list {
        shape {
          dim {
            size: -1
          }
          dim {
            size: 64
          }
        }
        shape {
          dim {
            size: -1
          }
          dim {
            size: 64
          }
        }
      }
    }
  }
}
node {
  name: "adanet/iteration_0/subnetwork_t0_dnn3/model_fn/dnn/zero_fraction_2/cond/count_nonzero_1/Cast"
  op: "Cast"
  input: "adanet/iteration_0/subnetwork_t0_dnn3/model_fn/dnn/zero_fraction_2/cond/count_nonzero_1/NotEqual"
  attr {
    key: "DstT"
    value {
      type: DT_INT64
    }
  }
  attr {
    key: "SrcT"
    value {
      type: DT_BOOL
    }
  }
  attr {
    key: "Truncate"
    value {
      b: false
    }
  }
  attr {
    key: "_output_shapes"
    value {
      list {
        shape {
          dim {
            size: -1
          }
          dim {
            size: 64
          }
        }
      }
    }
  }
}
node {
  name: "adanet/iteration_0/subnetwork_t0_dnn3/model_fn/dnn/zero_fraction_2/cond/count_nonzero_1/Const"
  op: "Const"
  input: "^adanet/iteration_0/subnetwork_t0_dnn3/model_fn/dnn/zero_fraction_2/cond/switch_f"
  attr {
    key: "_output_shapes"
    value {
      list {
        shape {
          dim {
            size: 2
          }
        }
      }
    }
  }
  attr {
    key: "dtype"
    value {
      type: DT_INT32
    }
  }
  attr {
    key: "value"
    value {
      tensor {
        dtype: DT_INT32
        tensor_shape {
          dim {
            size: 2
          }
        }
        tensor_content: "\000\000\000\000\001\000\000\000"
      }
    }
  }
}
node {
  name: "adanet/iteration_0/subnetwork_t0_dnn3/model_fn/dnn/zero_fraction_2/cond/count_nonzero_1/nonzero_count"
  op: "Sum"
  input: "adanet/iteration_0/subnetwork_t0_dnn3/model_fn/dnn/zero_fraction_2/cond/count_nonzero_1/Cast"
  input: "adanet/iteration_0/subnetwork_t0_dnn3/model_fn/dnn/zero_fraction_2/cond/count_nonzero_1/Const"
  attr {
    key: "T"
    value {
      type: DT_INT64
    }
  }
  attr {
    key: "Tidx"
    value {
      type: DT_INT32
    }
  }
  attr {
    key: "_output_shapes"
    value {
      list {
        shape {
        }
      }
    }
  }
  attr {
    key: "keep_dims"
    value {
      b: false
    }
  }
}
node {
  name: "adanet/iteration_0/subnetwork_t0_dnn3/model_fn/dnn/zero_fraction_2/cond/Merge"
  op: "Merge"
  input: "adanet/iteration_0/subnetwork_t0_dnn3/model_fn/dnn/zero_fraction_2/cond/count_nonzero_1/nonzero_count"
  input: "adanet/iteration_0/subnetwork_t0_dnn3/model_fn/dnn/zero_fraction_2/cond/Cast"
  attr {
    key: "N"
    value {
      i: 2
    }
  }
  attr {
    key: "T"
    value {
      type: DT_INT64
    }
  }
  attr {
    key: "_output_shapes"
    value {
      list {
        shape {
        }
        shape {
        }
      }
    }
  }
}
node {
  name: "adanet/iteration_0/subnetwork_t0_dnn3/model_fn/dnn/zero_fraction_2/counts_to_fraction/sub"
  op: "Sub"
  input: "adanet/iteration_0/subnetwork_t0_dnn3/model_fn/dnn/zero_fraction_2/Size"
  input: "adanet/iteration_0/subnetwork_t0_dnn3/model_fn/dnn/zero_fraction_2/cond/Merge"
  attr {
    key: "T"
    value {
      type: DT_INT64
    }
  }
  attr {
    key: "_output_shapes"
    value {
      list {
        shape {
        }
      }
    }
  }
}
node {
  name: "adanet/iteration_0/subnetwork_t0_dnn3/model_fn/dnn/zero_fraction_2/counts_to_fraction/Cast"
  op: "Cast"
  input: "adanet/iteration_0/subnetwork_t0_dnn3/model_fn/dnn/zero_fraction_2/counts_to_fraction/sub"
  attr {
    key: "DstT"
    value {
      type: DT_FLOAT
    }
  }
  attr {
    key: "SrcT"
    value {
      type: DT_INT64
    }
  }
  attr {
    key: "Truncate"
    value {
      b: false
    }
  }
  attr {
    key: "_output_shapes"
    value {
      list {
        shape {
        }
      }
    }
  }
}
node {
  name: "adanet/iteration_0/subnetwork_t0_dnn3/model_fn/dnn/zero_fraction_2/counts_to_fraction/Cast_1"
  op: "Cast"
  input: "adanet/iteration_0/subnetwork_t0_dnn3/model_fn/dnn/zero_fraction_2/Size"
  attr {
    key: "DstT"
    value {
      type: DT_FLOAT
    }
  }
  attr {
    key: "SrcT"
    value {
      type: DT_INT64
    }
  }
  attr {
    key: "Truncate"
    value {
      b: false
    }
  }
  attr {
    key: "_output_shapes"
    value {
      list {
        shape {
        }
      }
    }
  }
}
node {
  name: "adanet/iteration_0/subnetwork_t0_dnn3/model_fn/dnn/zero_fraction_2/counts_to_fraction/truediv"
  op: "RealDiv"
  input: "adanet/iteration_0/subnetwork_t0_dnn3/model_fn/dnn/zero_fraction_2/counts_to_fraction/Cast"
  input: "adanet/iteration_0/subnetwork_t0_dnn3/model_fn/dnn/zero_fraction_2/counts_to_fraction/Cast_1"
  attr {
    key: "T"
    value {
      type: DT_FLOAT
    }
  }
  attr {
    key: "_output_shapes"
    value {
      list {
        shape {
        }
      }
    }
  }
}
node {
  name: "adanet/iteration_0/subnetwork_t0_dnn3/model_fn/dnn/zero_fraction_2/fraction"
  op: "Identity"
  input: "adanet/iteration_0/subnetwork_t0_dnn3/model_fn/dnn/zero_fraction_2/counts_to_fraction/truediv"
  attr {
    key: "T"
    value {
      type: DT_FLOAT
    }
  }
  attr {
    key: "_output_shapes"
    value {
      list {
        shape {
        }
      }
    }
  }
}
node {
  name: "adanet/iteration_0/subnetwork_t0_dnn3/model_fn/dnn/Const_4"
  op: "Const"
  attr {
    key: "_output_shapes"
    value {
      list {
        shape {
        }
      }
    }
  }
  attr {
    key: "dtype"
    value {
      type: DT_STRING
    }
  }
  attr {
    key: "value"
    value {
      tensor {
        dtype: DT_STRING
        tensor_shape {
        }
        string_val: ""
      }
    }
  }
}
node {
  name: "adanet/iteration_0/subnetwork_t0_dnn3/model_fn/dnn/Const_5"
  op: "Const"
  attr {
    key: "_output_shapes"
    value {
      list {
        shape {
        }
      }
    }
  }
  attr {
    key: "dtype"
    value {
      type: DT_STRING
    }
  }
  attr {
    key: "value"
    value {
      tensor {
        dtype: DT_STRING
        tensor_shape {
        }
        string_val: ""
      }
    }
  }
}
node {
  name: "adanet/iteration_0/subnetwork_t0_dnn3/model_fn/dnn/logits/kernel/part_0/Initializer/random_uniform/shape"
  op: "Const"
  attr {
    key: "_class"
    value {
      list {
        s: "loc:@adanet/iteration_0/subnetwork_t0_dnn3/model_fn/dnn/logits/kernel/part_0"
      }
    }
  }
  attr {
    key: "_output_shapes"
    value {
      list {
        shape {
          dim {
            size: 2
          }
        }
      }
    }
  }
  attr {
    key: "dtype"
    value {
      type: DT_INT32
    }
  }
  attr {
    key: "value"
    value {
      tensor {
        dtype: DT_INT32
        tensor_shape {
          dim {
            size: 2
          }
        }
        tensor_content: "@\000\000\000\001\000\000\000"
      }
    }
  }
}
node {
  name: "adanet/iteration_0/subnetwork_t0_dnn3/model_fn/dnn/logits/kernel/part_0/Initializer/random_uniform/min"
  op: "Const"
  attr {
    key: "_class"
    value {
      list {
        s: "loc:@adanet/iteration_0/subnetwork_t0_dnn3/model_fn/dnn/logits/kernel/part_0"
      }
    }
  }
  attr {
    key: "_output_shapes"
    value {
      list {
        shape {
        }
      }
    }
  }
  attr {
    key: "dtype"
    value {
      type: DT_FLOAT
    }
  }
  attr {
    key: "value"
    value {
      tensor {
        dtype: DT_FLOAT
        tensor_shape {
        }
        float_val: -0.3038218021392822
      }
    }
  }
}
node {
  name: "adanet/iteration_0/subnetwork_t0_dnn3/model_fn/dnn/logits/kernel/part_0/Initializer/random_uniform/max"
  op: "Const"
  attr {
    key: "_class"
    value {
      list {
        s: "loc:@adanet/iteration_0/subnetwork_t0_dnn3/model_fn/dnn/logits/kernel/part_0"
      }
    }
  }
  attr {
    key: "_output_shapes"
    value {
      list {
        shape {
        }
      }
    }
  }
  attr {
    key: "dtype"
    value {
      type: DT_FLOAT
    }
  }
  attr {
    key: "value"
    value {
      tensor {
        dtype: DT_FLOAT
        tensor_shape {
        }
        float_val: 0.3038218021392822
      }
    }
  }
}
node {
  name: "adanet/iteration_0/subnetwork_t0_dnn3/model_fn/dnn/logits/kernel/part_0/Initializer/random_uniform/RandomUniform"
  op: "RandomUniform"
  input: "adanet/iteration_0/subnetwork_t0_dnn3/model_fn/dnn/logits/kernel/part_0/Initializer/random_uniform/shape"
  attr {
    key: "T"
    value {
      type: DT_INT32
    }
  }
  attr {
    key: "_class"
    value {
      list {
        s: "loc:@adanet/iteration_0/subnetwork_t0_dnn3/model_fn/dnn/logits/kernel/part_0"
      }
    }
  }
  attr {
    key: "_output_shapes"
    value {
      list {
        shape {
          dim {
            size: 64
          }
          dim {
            size: 1
          }
        }
      }
    }
  }
  attr {
    key: "dtype"
    value {
      type: DT_FLOAT
    }
  }
  attr {
    key: "seed"
    value {
      i: 0
    }
  }
  attr {
    key: "seed2"
    value {
      i: 0
    }
  }
}
node {
  name: "adanet/iteration_0/subnetwork_t0_dnn3/model_fn/dnn/logits/kernel/part_0/Initializer/random_uniform/sub"
  op: "Sub"
  input: "adanet/iteration_0/subnetwork_t0_dnn3/model_fn/dnn/logits/kernel/part_0/Initializer/random_uniform/max"
  input: "adanet/iteration_0/subnetwork_t0_dnn3/model_fn/dnn/logits/kernel/part_0/Initializer/random_uniform/min"
  attr {
    key: "T"
    value {
      type: DT_FLOAT
    }
  }
  attr {
    key: "_class"
    value {
      list {
        s: "loc:@adanet/iteration_0/subnetwork_t0_dnn3/model_fn/dnn/logits/kernel/part_0"
      }
    }
  }
  attr {
    key: "_output_shapes"
    value {
      list {
        shape {
        }
      }
    }
  }
}
node {
  name: "adanet/iteration_0/subnetwork_t0_dnn3/model_fn/dnn/logits/kernel/part_0/Initializer/random_uniform/mul"
  op: "Mul"
  input: "adanet/iteration_0/subnetwork_t0_dnn3/model_fn/dnn/logits/kernel/part_0/Initializer/random_uniform/RandomUniform"
  input: "adanet/iteration_0/subnetwork_t0_dnn3/model_fn/dnn/logits/kernel/part_0/Initializer/random_uniform/sub"
  attr {
    key: "T"
    value {
      type: DT_FLOAT
    }
  }
  attr {
    key: "_class"
    value {
      list {
        s: "loc:@adanet/iteration_0/subnetwork_t0_dnn3/model_fn/dnn/logits/kernel/part_0"
      }
    }
  }
  attr {
    key: "_output_shapes"
    value {
      list {
        shape {
          dim {
            size: 64
          }
          dim {
            size: 1
          }
        }
      }
    }
  }
}
node {
  name: "adanet/iteration_0/subnetwork_t0_dnn3/model_fn/dnn/logits/kernel/part_0/Initializer/random_uniform"
  op: "Add"
  input: "adanet/iteration_0/subnetwork_t0_dnn3/model_fn/dnn/logits/kernel/part_0/Initializer/random_uniform/mul"
  input: "adanet/iteration_0/subnetwork_t0_dnn3/model_fn/dnn/logits/kernel/part_0/Initializer/random_uniform/min"
  attr {
    key: "T"
    value {
      type: DT_FLOAT
    }
  }
  attr {
    key: "_class"
    value {
      list {
        s: "loc:@adanet/iteration_0/subnetwork_t0_dnn3/model_fn/dnn/logits/kernel/part_0"
      }
    }
  }
  attr {
    key: "_output_shapes"
    value {
      list {
        shape {
          dim {
            size: 64
          }
          dim {
            size: 1
          }
        }
      }
    }
  }
}
node {
  name: "adanet/iteration_0/subnetwork_t0_dnn3/model_fn/dnn/logits/kernel/part_0"
  op: "VarHandleOp"
  attr {
    key: "_class"
    value {
      list {
        s: "loc:@adanet/iteration_0/subnetwork_t0_dnn3/model_fn/dnn/logits/kernel/part_0"
      }
    }
  }
  attr {
    key: "_output_shapes"
    value {
      list {
        shape {
        }
      }
    }
  }
  attr {
    key: "container"
    value {
      s: ""
    }
  }
  attr {
    key: "dtype"
    value {
      type: DT_FLOAT
    }
  }
  attr {
    key: "shape"
    value {
      shape {
        dim {
          size: 64
        }
        dim {
          size: 1
        }
      }
    }
  }
  attr {
    key: "shared_name"
    value {
      s: "adanet/iteration_0/subnetwork_t0_dnn3/model_fn/dnn/logits/kernel/part_0"
    }
  }
}
node {
  name: "adanet/iteration_0/subnetwork_t0_dnn3/model_fn/dnn/logits/kernel/part_0/IsInitialized/VarIsInitializedOp"
  op: "VarIsInitializedOp"
  input: "adanet/iteration_0/subnetwork_t0_dnn3/model_fn/dnn/logits/kernel/part_0"
  attr {
    key: "_output_shapes"
    value {
      list {
        shape {
        }
      }
    }
  }
}
node {
  name: "adanet/iteration_0/subnetwork_t0_dnn3/model_fn/dnn/logits/kernel/part_0/Assign"
  op: "AssignVariableOp"
  input: "adanet/iteration_0/subnetwork_t0_dnn3/model_fn/dnn/logits/kernel/part_0"
  input: "adanet/iteration_0/subnetwork_t0_dnn3/model_fn/dnn/logits/kernel/part_0/Initializer/random_uniform"
  attr {
    key: "_class"
    value {
      list {
        s: "loc:@adanet/iteration_0/subnetwork_t0_dnn3/model_fn/dnn/logits/kernel/part_0"
      }
    }
  }
  attr {
    key: "dtype"
    value {
      type: DT_FLOAT
    }
  }
}
node {
  name: "adanet/iteration_0/subnetwork_t0_dnn3/model_fn/dnn/logits/kernel/part_0/Read/ReadVariableOp"
  op: "ReadVariableOp"
  input: "adanet/iteration_0/subnetwork_t0_dnn3/model_fn/dnn/logits/kernel/part_0"
  attr {
    key: "_class"
    value {
      list {
        s: "loc:@adanet/iteration_0/subnetwork_t0_dnn3/model_fn/dnn/logits/kernel/part_0"
      }
    }
  }
  attr {
    key: "_output_shapes"
    value {
      list {
        shape {
          dim {
            size: 64
          }
          dim {
            size: 1
          }
        }
      }
    }
  }
  attr {
    key: "dtype"
    value {
      type: DT_FLOAT
    }
  }
}
node {
  name: "adanet/iteration_0/subnetwork_t0_dnn3/model_fn/dnn/logits/bias/part_0/Initializer/zeros"
  op: "Const"
  attr {
    key: "_class"
    value {
      list {
        s: "loc:@adanet/iteration_0/subnetwork_t0_dnn3/model_fn/dnn/logits/bias/part_0"
      }
    }
  }
  attr {
    key: "_output_shapes"
    value {
      list {
        shape {
          dim {
            size: 1
          }
        }
      }
    }
  }
  attr {
    key: "dtype"
    value {
      type: DT_FLOAT
    }
  }
  attr {
    key: "value"
    value {
      tensor {
        dtype: DT_FLOAT
        tensor_shape {
          dim {
            size: 1
          }
        }
        float_val: 0.0
      }
    }
  }
}
node {
  name: "adanet/iteration_0/subnetwork_t0_dnn3/model_fn/dnn/logits/bias/part_0"
  op: "VarHandleOp"
  attr {
    key: "_class"
    value {
      list {
        s: "loc:@adanet/iteration_0/subnetwork_t0_dnn3/model_fn/dnn/logits/bias/part_0"
      }
    }
  }
  attr {
    key: "_output_shapes"
    value {
      list {
        shape {
        }
      }
    }
  }
  attr {
    key: "container"
    value {
      s: ""
    }
  }
  attr {
    key: "dtype"
    value {
      type: DT_FLOAT
    }
  }
  attr {
    key: "shape"
    value {
      shape {
        dim {
          size: 1
        }
      }
    }
  }
  attr {
    key: "shared_name"
    value {
      s: "adanet/iteration_0/subnetwork_t0_dnn3/model_fn/dnn/logits/bias/part_0"
    }
  }
}
node {
  name: "adanet/iteration_0/subnetwork_t0_dnn3/model_fn/dnn/logits/bias/part_0/IsInitialized/VarIsInitializedOp"
  op: "VarIsInitializedOp"
  input: "adanet/iteration_0/subnetwork_t0_dnn3/model_fn/dnn/logits/bias/part_0"
  attr {
    key: "_output_shapes"
    value {
      list {
        shape {
        }
      }
    }
  }
}
node {
  name: "adanet/iteration_0/subnetwork_t0_dnn3/model_fn/dnn/logits/bias/part_0/Assign"
  op: "AssignVariableOp"
  input: "adanet/iteration_0/subnetwork_t0_dnn3/model_fn/dnn/logits/bias/part_0"
  input: "adanet/iteration_0/subnetwork_t0_dnn3/model_fn/dnn/logits/bias/part_0/Initializer/zeros"
  attr {
    key: "_class"
    value {
      list {
        s: "loc:@adanet/iteration_0/subnetwork_t0_dnn3/model_fn/dnn/logits/bias/part_0"
      }
    }
  }
  attr {
    key: "dtype"
    value {
      type: DT_FLOAT
    }
  }
}
node {
  name: "adanet/iteration_0/subnetwork_t0_dnn3/model_fn/dnn/logits/bias/part_0/Read/ReadVariableOp"
  op: "ReadVariableOp"
  input: "adanet/iteration_0/subnetwork_t0_dnn3/model_fn/dnn/logits/bias/part_0"
  attr {
    key: "_class"
    value {
      list {
        s: "loc:@adanet/iteration_0/subnetwork_t0_dnn3/model_fn/dnn/logits/bias/part_0"
      }
    }
  }
  attr {
    key: "_output_shapes"
    value {
      list {
        shape {
          dim {
            size: 1
          }
        }
      }
    }
  }
  attr {
    key: "dtype"
    value {
      type: DT_FLOAT
    }
  }
}
node {
  name: "adanet/iteration_0/subnetwork_t0_dnn3/model_fn/dnn/logits/kernel/ReadVariableOp"
  op: "ReadVariableOp"
  input: "adanet/iteration_0/subnetwork_t0_dnn3/model_fn/dnn/logits/kernel/part_0"
  attr {
    key: "_output_shapes"
    value {
      list {
        shape {
          dim {
            size: 64
          }
          dim {
            size: 1
          }
        }
      }
    }
  }
  attr {
    key: "dtype"
    value {
      type: DT_FLOAT
    }
  }
}
node {
  name: "adanet/iteration_0/subnetwork_t0_dnn3/model_fn/dnn/logits/kernel"
  op: "Identity"
  input: "adanet/iteration_0/subnetwork_t0_dnn3/model_fn/dnn/logits/kernel/ReadVariableOp"
  attr {
    key: "T"
    value {
      type: DT_FLOAT
    }
  }
  attr {
    key: "_output_shapes"
    value {
      list {
        shape {
          dim {
            size: 64
          }
          dim {
            size: 1
          }
        }
      }
    }
  }
}
node {
  name: "adanet/iteration_0/subnetwork_t0_dnn3/model_fn/dnn/logits/MatMul"
  op: "MatMul"
  input: "adanet/iteration_0/subnetwork_t0_dnn3/model_fn/dnn/hiddenlayer_2/Relu"
  input: "adanet/iteration_0/subnetwork_t0_dnn3/model_fn/dnn/logits/kernel"
  attr {
    key: "T"
    value {
      type: DT_FLOAT
    }
  }
  attr {
    key: "_output_shapes"
    value {
      list {
        shape {
          dim {
            size: -1
          }
          dim {
            size: 1
          }
        }
      }
    }
  }
  attr {
    key: "transpose_a"
    value {
      b: false
    }
  }
  attr {
    key: "transpose_b"
    value {
      b: false
    }
  }
}
node {
  name: "adanet/iteration_0/subnetwork_t0_dnn3/model_fn/dnn/logits/bias/ReadVariableOp"
  op: "ReadVariableOp"
  input: "adanet/iteration_0/subnetwork_t0_dnn3/model_fn/dnn/logits/bias/part_0"
  attr {
    key: "_output_shapes"
    value {
      list {
        shape {
          dim {
            size: 1
          }
        }
      }
    }
  }
  attr {
    key: "dtype"
    value {
      type: DT_FLOAT
    }
  }
}
node {
  name: "adanet/iteration_0/subnetwork_t0_dnn3/model_fn/dnn/logits/bias"
  op: "Identity"
  input: "adanet/iteration_0/subnetwork_t0_dnn3/model_fn/dnn/logits/bias/ReadVariableOp"
  attr {
    key: "T"
    value {
      type: DT_FLOAT
    }
  }
  attr {
    key: "_output_shapes"
    value {
      list {
        shape {
          dim {
            size: 1
          }
        }
      }
    }
  }
}
node {
  name: "adanet/iteration_0/subnetwork_t0_dnn3/model_fn/dnn/logits/BiasAdd"
  op: "BiasAdd"
  input: "adanet/iteration_0/subnetwork_t0_dnn3/model_fn/dnn/logits/MatMul"
  input: "adanet/iteration_0/subnetwork_t0_dnn3/model_fn/dnn/logits/bias"
  attr {
    key: "T"
    value {
      type: DT_FLOAT
    }
  }
  attr {
    key: "_output_shapes"
    value {
      list {
        shape {
          dim {
            size: -1
          }
          dim {
            size: 1
          }
        }
      }
    }
  }
  attr {
    key: "data_format"
    value {
      s: "NHWC"
    }
  }
}
node {
  name: "adanet/iteration_0/subnetwork_t0_dnn3/model_fn/dnn/zero_fraction_3/Size"
  op: "Size"
  input: "adanet/iteration_0/subnetwork_t0_dnn3/model_fn/dnn/logits/BiasAdd"
  attr {
    key: "T"
    value {
      type: DT_FLOAT
    }
  }
  attr {
    key: "_output_shapes"
    value {
      list {
        shape {
        }
      }
    }
  }
  attr {
    key: "out_type"
    value {
      type: DT_INT64
    }
  }
}
node {
  name: "adanet/iteration_0/subnetwork_t0_dnn3/model_fn/dnn/zero_fraction_3/LessEqual/y"
  op: "Const"
  attr {
    key: "_output_shapes"
    value {
      list {
        shape {
        }
      }
    }
  }
  attr {
    key: "dtype"
    value {
      type: DT_INT64
    }
  }
  attr {
    key: "value"
    value {
      tensor {
        dtype: DT_INT64
        tensor_shape {
        }
        int64_val: 2147483647
      }
    }
  }
}
node {
  name: "adanet/iteration_0/subnetwork_t0_dnn3/model_fn/dnn/zero_fraction_3/LessEqual"
  op: "LessEqual"
  input: "adanet/iteration_0/subnetwork_t0_dnn3/model_fn/dnn/zero_fraction_3/Size"
  input: "adanet/iteration_0/subnetwork_t0_dnn3/model_fn/dnn/zero_fraction_3/LessEqual/y"
  attr {
    key: "T"
    value {
      type: DT_INT64
    }
  }
  attr {
    key: "_output_shapes"
    value {
      list {
        shape {
        }
      }
    }
  }
}
node {
  name: "adanet/iteration_0/subnetwork_t0_dnn3/model_fn/dnn/zero_fraction_3/cond/Switch"
  op: "Switch"
  input: "adanet/iteration_0/subnetwork_t0_dnn3/model_fn/dnn/zero_fraction_3/LessEqual"
  input: "adanet/iteration_0/subnetwork_t0_dnn3/model_fn/dnn/zero_fraction_3/LessEqual"
  attr {
    key: "T"
    value {
      type: DT_BOOL
    }
  }
  attr {
    key: "_output_shapes"
    value {
      list {
        shape {
        }
        shape {
        }
      }
    }
  }
}
node {
  name: "adanet/iteration_0/subnetwork_t0_dnn3/model_fn/dnn/zero_fraction_3/cond/switch_t"
  op: "Identity"
  input: "adanet/iteration_0/subnetwork_t0_dnn3/model_fn/dnn/zero_fraction_3/cond/Switch:1"
  attr {
    key: "T"
    value {
      type: DT_BOOL
    }
  }
  attr {
    key: "_output_shapes"
    value {
      list {
        shape {
        }
      }
    }
  }
}
node {
  name: "adanet/iteration_0/subnetwork_t0_dnn3/model_fn/dnn/zero_fraction_3/cond/switch_f"
  op: "Identity"
  input: "adanet/iteration_0/subnetwork_t0_dnn3/model_fn/dnn/zero_fraction_3/cond/Switch"
  attr {
    key: "T"
    value {
      type: DT_BOOL
    }
  }
  attr {
    key: "_output_shapes"
    value {
      list {
        shape {
        }
      }
    }
  }
}
node {
  name: "adanet/iteration_0/subnetwork_t0_dnn3/model_fn/dnn/zero_fraction_3/cond/pred_id"
  op: "Identity"
  input: "adanet/iteration_0/subnetwork_t0_dnn3/model_fn/dnn/zero_fraction_3/LessEqual"
  attr {
    key: "T"
    value {
      type: DT_BOOL
    }
  }
  attr {
    key: "_output_shapes"
    value {
      list {
        shape {
        }
      }
    }
  }
}
node {
  name: "adanet/iteration_0/subnetwork_t0_dnn3/model_fn/dnn/zero_fraction_3/cond/count_nonzero/zeros"
  op: "Const"
  input: "^adanet/iteration_0/subnetwork_t0_dnn3/model_fn/dnn/zero_fraction_3/cond/switch_t"
  attr {
    key: "_output_shapes"
    value {
      list {
        shape {
        }
      }
    }
  }
  attr {
    key: "dtype"
    value {
      type: DT_FLOAT
    }
  }
  attr {
    key: "value"
    value {
      tensor {
        dtype: DT_FLOAT
        tensor_shape {
        }
        float_val: 0.0
      }
    }
  }
}
node {
  name: "adanet/iteration_0/subnetwork_t0_dnn3/model_fn/dnn/zero_fraction_3/cond/count_nonzero/NotEqual"
  op: "NotEqual"
  input: "adanet/iteration_0/subnetwork_t0_dnn3/model_fn/dnn/zero_fraction_3/cond/count_nonzero/NotEqual/Switch:1"
  input: "adanet/iteration_0/subnetwork_t0_dnn3/model_fn/dnn/zero_fraction_3/cond/count_nonzero/zeros"
  attr {
    key: "T"
    value {
      type: DT_FLOAT
    }
  }
  attr {
    key: "_output_shapes"
    value {
      list {
        shape {
          dim {
            size: -1
          }
          dim {
            size: 1
          }
        }
      }
    }
  }
}
node {
  name: "adanet/iteration_0/subnetwork_t0_dnn3/model_fn/dnn/zero_fraction_3/cond/count_nonzero/NotEqual/Switch"
  op: "Switch"
  input: "adanet/iteration_0/subnetwork_t0_dnn3/model_fn/dnn/logits/BiasAdd"
  input: "adanet/iteration_0/subnetwork_t0_dnn3/model_fn/dnn/zero_fraction_3/cond/pred_id"
  attr {
    key: "T"
    value {
      type: DT_FLOAT
    }
  }
  attr {
    key: "_class"
    value {
      list {
        s: "loc:@adanet/iteration_0/subnetwork_t0_dnn3/model_fn/dnn/logits/BiasAdd"
      }
    }
  }
  attr {
    key: "_output_shapes"
    value {
      list {
        shape {
          dim {
            size: -1
          }
          dim {
            size: 1
          }
        }
        shape {
          dim {
            size: -1
          }
          dim {
            size: 1
          }
        }
      }
    }
  }
}
node {
  name: "adanet/iteration_0/subnetwork_t0_dnn3/model_fn/dnn/zero_fraction_3/cond/count_nonzero/Cast"
  op: "Cast"
  input: "adanet/iteration_0/subnetwork_t0_dnn3/model_fn/dnn/zero_fraction_3/cond/count_nonzero/NotEqual"
  attr {
    key: "DstT"
    value {
      type: DT_INT32
    }
  }
  attr {
    key: "SrcT"
    value {
      type: DT_BOOL
    }
  }
  attr {
    key: "Truncate"
    value {
      b: false
    }
  }
  attr {
    key: "_output_shapes"
    value {
      list {
        shape {
          dim {
            size: -1
          }
          dim {
            size: 1
          }
        }
      }
    }
  }
}
node {
  name: "adanet/iteration_0/subnetwork_t0_dnn3/model_fn/dnn/zero_fraction_3/cond/count_nonzero/Const"
  op: "Const"
  input: "^adanet/iteration_0/subnetwork_t0_dnn3/model_fn/dnn/zero_fraction_3/cond/switch_t"
  attr {
    key: "_output_shapes"
    value {
      list {
        shape {
          dim {
            size: 2
          }
        }
      }
    }
  }
  attr {
    key: "dtype"
    value {
      type: DT_INT32
    }
  }
  attr {
    key: "value"
    value {
      tensor {
        dtype: DT_INT32
        tensor_shape {
          dim {
            size: 2
          }
        }
        tensor_content: "\000\000\000\000\001\000\000\000"
      }
    }
  }
}
node {
  name: "adanet/iteration_0/subnetwork_t0_dnn3/model_fn/dnn/zero_fraction_3/cond/count_nonzero/nonzero_count"
  op: "Sum"
  input: "adanet/iteration_0/subnetwork_t0_dnn3/model_fn/dnn/zero_fraction_3/cond/count_nonzero/Cast"
  input: "adanet/iteration_0/subnetwork_t0_dnn3/model_fn/dnn/zero_fraction_3/cond/count_nonzero/Const"
  attr {
    key: "T"
    value {
      type: DT_INT32
    }
  }
  attr {
    key: "Tidx"
    value {
      type: DT_INT32
    }
  }
  attr {
    key: "_output_shapes"
    value {
      list {
        shape {
        }
      }
    }
  }
  attr {
    key: "keep_dims"
    value {
      b: false
    }
  }
}
node {
  name: "adanet/iteration_0/subnetwork_t0_dnn3/model_fn/dnn/zero_fraction_3/cond/Cast"
  op: "Cast"
  input: "adanet/iteration_0/subnetwork_t0_dnn3/model_fn/dnn/zero_fraction_3/cond/count_nonzero/nonzero_count"
  attr {
    key: "DstT"
    value {
      type: DT_INT64
    }
  }
  attr {
    key: "SrcT"
    value {
      type: DT_INT32
    }
  }
  attr {
    key: "Truncate"
    value {
      b: false
    }
  }
  attr {
    key: "_output_shapes"
    value {
      list {
        shape {
        }
      }
    }
  }
}
node {
  name: "adanet/iteration_0/subnetwork_t0_dnn3/model_fn/dnn/zero_fraction_3/cond/count_nonzero_1/zeros"
  op: "Const"
  input: "^adanet/iteration_0/subnetwork_t0_dnn3/model_fn/dnn/zero_fraction_3/cond/switch_f"
  attr {
    key: "_output_shapes"
    value {
      list {
        shape {
        }
      }
    }
  }
  attr {
    key: "dtype"
    value {
      type: DT_FLOAT
    }
  }
  attr {
    key: "value"
    value {
      tensor {
        dtype: DT_FLOAT
        tensor_shape {
        }
        float_val: 0.0
      }
    }
  }
}
node {
  name: "adanet/iteration_0/subnetwork_t0_dnn3/model_fn/dnn/zero_fraction_3/cond/count_nonzero_1/NotEqual"
  op: "NotEqual"
  input: "adanet/iteration_0/subnetwork_t0_dnn3/model_fn/dnn/zero_fraction_3/cond/count_nonzero_1/NotEqual/Switch"
  input: "adanet/iteration_0/subnetwork_t0_dnn3/model_fn/dnn/zero_fraction_3/cond/count_nonzero_1/zeros"
  attr {
    key: "T"
    value {
      type: DT_FLOAT
    }
  }
  attr {
    key: "_output_shapes"
    value {
      list {
        shape {
          dim {
            size: -1
          }
          dim {
            size: 1
          }
        }
      }
    }
  }
}
node {
  name: "adanet/iteration_0/subnetwork_t0_dnn3/model_fn/dnn/zero_fraction_3/cond/count_nonzero_1/NotEqual/Switch"
  op: "Switch"
  input: "adanet/iteration_0/subnetwork_t0_dnn3/model_fn/dnn/logits/BiasAdd"
  input: "adanet/iteration_0/subnetwork_t0_dnn3/model_fn/dnn/zero_fraction_3/cond/pred_id"
  attr {
    key: "T"
    value {
      type: DT_FLOAT
    }
  }
  attr {
    key: "_class"
    value {
      list {
        s: "loc:@adanet/iteration_0/subnetwork_t0_dnn3/model_fn/dnn/logits/BiasAdd"
      }
    }
  }
  attr {
    key: "_output_shapes"
    value {
      list {
        shape {
          dim {
            size: -1
          }
          dim {
            size: 1
          }
        }
        shape {
          dim {
            size: -1
          }
          dim {
            size: 1
          }
        }
      }
    }
  }
}
node {
  name: "adanet/iteration_0/subnetwork_t0_dnn3/model_fn/dnn/zero_fraction_3/cond/count_nonzero_1/Cast"
  op: "Cast"
  input: "adanet/iteration_0/subnetwork_t0_dnn3/model_fn/dnn/zero_fraction_3/cond/count_nonzero_1/NotEqual"
  attr {
    key: "DstT"
    value {
      type: DT_INT64
    }
  }
  attr {
    key: "SrcT"
    value {
      type: DT_BOOL
    }
  }
  attr {
    key: "Truncate"
    value {
      b: false
    }
  }
  attr {
    key: "_output_shapes"
    value {
      list {
        shape {
          dim {
            size: -1
          }
          dim {
            size: 1
          }
        }
      }
    }
  }
}
node {
  name: "adanet/iteration_0/subnetwork_t0_dnn3/model_fn/dnn/zero_fraction_3/cond/count_nonzero_1/Const"
  op: "Const"
  input: "^adanet/iteration_0/subnetwork_t0_dnn3/model_fn/dnn/zero_fraction_3/cond/switch_f"
  attr {
    key: "_output_shapes"
    value {
      list {
        shape {
          dim {
            size: 2
          }
        }
      }
    }
  }
  attr {
    key: "dtype"
    value {
      type: DT_INT32
    }
  }
  attr {
    key: "value"
    value {
      tensor {
        dtype: DT_INT32
        tensor_shape {
          dim {
            size: 2
          }
        }
        tensor_content: "\000\000\000\000\001\000\000\000"
      }
    }
  }
}
node {
  name: "adanet/iteration_0/subnetwork_t0_dnn3/model_fn/dnn/zero_fraction_3/cond/count_nonzero_1/nonzero_count"
  op: "Sum"
  input: "adanet/iteration_0/subnetwork_t0_dnn3/model_fn/dnn/zero_fraction_3/cond/count_nonzero_1/Cast"
  input: "adanet/iteration_0/subnetwork_t0_dnn3/model_fn/dnn/zero_fraction_3/cond/count_nonzero_1/Const"
  attr {
    key: "T"
    value {
      type: DT_INT64
    }
  }
  attr {
    key: "Tidx"
    value {
      type: DT_INT32
    }
  }
  attr {
    key: "_output_shapes"
    value {
      list {
        shape {
        }
      }
    }
  }
  attr {
    key: "keep_dims"
    value {
      b: false
    }
  }
}
node {
  name: "adanet/iteration_0/subnetwork_t0_dnn3/model_fn/dnn/zero_fraction_3/cond/Merge"
  op: "Merge"
  input: "adanet/iteration_0/subnetwork_t0_dnn3/model_fn/dnn/zero_fraction_3/cond/count_nonzero_1/nonzero_count"
  input: "adanet/iteration_0/subnetwork_t0_dnn3/model_fn/dnn/zero_fraction_3/cond/Cast"
  attr {
    key: "N"
    value {
      i: 2
    }
  }
  attr {
    key: "T"
    value {
      type: DT_INT64
    }
  }
  attr {
    key: "_output_shapes"
    value {
      list {
        shape {
        }
        shape {
        }
      }
    }
  }
}
node {
  name: "adanet/iteration_0/subnetwork_t0_dnn3/model_fn/dnn/zero_fraction_3/counts_to_fraction/sub"
  op: "Sub"
  input: "adanet/iteration_0/subnetwork_t0_dnn3/model_fn/dnn/zero_fraction_3/Size"
  input: "adanet/iteration_0/subnetwork_t0_dnn3/model_fn/dnn/zero_fraction_3/cond/Merge"
  attr {
    key: "T"
    value {
      type: DT_INT64
    }
  }
  attr {
    key: "_output_shapes"
    value {
      list {
        shape {
        }
      }
    }
  }
}
node {
  name: "adanet/iteration_0/subnetwork_t0_dnn3/model_fn/dnn/zero_fraction_3/counts_to_fraction/Cast"
  op: "Cast"
  input: "adanet/iteration_0/subnetwork_t0_dnn3/model_fn/dnn/zero_fraction_3/counts_to_fraction/sub"
  attr {
    key: "DstT"
    value {
      type: DT_FLOAT
    }
  }
  attr {
    key: "SrcT"
    value {
      type: DT_INT64
    }
  }
  attr {
    key: "Truncate"
    value {
      b: false
    }
  }
  attr {
    key: "_output_shapes"
    value {
      list {
        shape {
        }
      }
    }
  }
}
node {
  name: "adanet/iteration_0/subnetwork_t0_dnn3/model_fn/dnn/zero_fraction_3/counts_to_fraction/Cast_1"
  op: "Cast"
  input: "adanet/iteration_0/subnetwork_t0_dnn3/model_fn/dnn/zero_fraction_3/Size"
  attr {
    key: "DstT"
    value {
      type: DT_FLOAT
    }
  }
  attr {
    key: "SrcT"
    value {
      type: DT_INT64
    }
  }
  attr {
    key: "Truncate"
    value {
      b: false
    }
  }
  attr {
    key: "_output_shapes"
    value {
      list {
        shape {
        }
      }
    }
  }
}
node {
  name: "adanet/iteration_0/subnetwork_t0_dnn3/model_fn/dnn/zero_fraction_3/counts_to_fraction/truediv"
  op: "RealDiv"
  input: "adanet/iteration_0/subnetwork_t0_dnn3/model_fn/dnn/zero_fraction_3/counts_to_fraction/Cast"
  input: "adanet/iteration_0/subnetwork_t0_dnn3/model_fn/dnn/zero_fraction_3/counts_to_fraction/Cast_1"
  attr {
    key: "T"
    value {
      type: DT_FLOAT
    }
  }
  attr {
    key: "_output_shapes"
    value {
      list {
        shape {
        }
      }
    }
  }
}
node {
  name: "adanet/iteration_0/subnetwork_t0_dnn3/model_fn/dnn/zero_fraction_3/fraction"
  op: "Identity"
  input: "adanet/iteration_0/subnetwork_t0_dnn3/model_fn/dnn/zero_fraction_3/counts_to_fraction/truediv"
  attr {
    key: "T"
    value {
      type: DT_FLOAT
    }
  }
  attr {
    key: "_output_shapes"
    value {
      list {
        shape {
        }
      }
    }
  }
}
node {
  name: "adanet/iteration_0/subnetwork_t0_dnn3/model_fn/dnn/Const_6"
  op: "Const"
  attr {
    key: "_output_shapes"
    value {
      list {
        shape {
        }
      }
    }
  }
  attr {
    key: "dtype"
    value {
      type: DT_STRING
    }
  }
  attr {
    key: "value"
    value {
      tensor {
        dtype: DT_STRING
        tensor_shape {
        }
        string_val: ""
      }
    }
  }
}
node {
  name: "adanet/iteration_0/subnetwork_t0_dnn3/model_fn/dnn/Const_7"
  op: "Const"
  attr {
    key: "_output_shapes"
    value {
      list {
        shape {
        }
      }
    }
  }
  attr {
    key: "dtype"
    value {
      type: DT_STRING
    }
  }
  attr {
    key: "value"
    value {
      tensor {
        dtype: DT_STRING
        tensor_shape {
        }
        string_val: ""
      }
    }
  }
}
node {
  name: "adanet/iteration_0/subnetwork_t0_dnn3/model_fn/dnn/head/logits/Shape"
  op: "Shape"
  input: "adanet/iteration_0/subnetwork_t0_dnn3/model_fn/dnn/logits/BiasAdd"
  attr {
    key: "T"
    value {
      type: DT_FLOAT
    }
  }
  attr {
    key: "_output_shapes"
    value {
      list {
        shape {
          dim {
            size: 2
          }
        }
      }
    }
  }
  attr {
    key: "out_type"
    value {
      type: DT_INT32
    }
  }
}
node {
  name: "adanet/iteration_0/subnetwork_t0_dnn3/model_fn/dnn/head/logits/assert_rank_at_least/rank"
  op: "Const"
  attr {
    key: "_output_shapes"
    value {
      list {
        shape {
        }
      }
    }
  }
  attr {
    key: "dtype"
    value {
      type: DT_INT32
    }
  }
  attr {
    key: "value"
    value {
      tensor {
        dtype: DT_INT32
        tensor_shape {
        }
        int_val: 2
      }
    }
  }
}
node {
  name: "adanet/iteration_0/subnetwork_t0_dnn3/model_fn/dnn/head/logits/assert_rank_at_least/assert_type/statically_determined_correct_type"
  op: "NoOp"
}
node {
  name: "adanet/iteration_0/subnetwork_t0_dnn3/model_fn/dnn/head/logits/assert_rank_at_least/static_checks_determined_all_ok"
  op: "NoOp"
}
node {
  name: "adanet/iteration_0/subnetwork_t0_dnn3/Const"
  op: "Const"
  attr {
    key: "_output_shapes"
    value {
      list {
        shape {
        }
      }
    }
  }
  attr {
    key: "dtype"
    value {
      type: DT_FLOAT
    }
  }
  attr {
    key: "value"
    value {
      tensor {
        dtype: DT_FLOAT
        tensor_shape {
        }
        float_val: 0.0
      }
    }
  }
}
node {
  name: "adanet/iteration_0/subnetwork_t0_dnn3/head/logits/Shape"
  op: "Shape"
  input: "adanet/iteration_0/subnetwork_t0_dnn3/model_fn/dnn/logits/BiasAdd"
  attr {
    key: "T"
    value {
      type: DT_FLOAT
    }
  }
  attr {
    key: "_output_shapes"
    value {
      list {
        shape {
          dim {
            size: 2
          }
        }
      }
    }
  }
  attr {
    key: "out_type"
    value {
      type: DT_INT32
    }
  }
}
node {
  name: "adanet/iteration_0/subnetwork_t0_dnn3/head/logits/assert_rank_at_least/rank"
  op: "Const"
  attr {
    key: "_output_shapes"
    value {
      list {
        shape {
        }
      }
    }
  }
  attr {
    key: "dtype"
    value {
      type: DT_INT32
    }
  }
  attr {
    key: "value"
    value {
      tensor {
        dtype: DT_INT32
        tensor_shape {
        }
        int_val: 2
      }
    }
  }
}
node {
  name: "adanet/iteration_0/subnetwork_t0_dnn3/head/logits/assert_rank_at_least/assert_type/statically_determined_correct_type"
  op: "NoOp"
}
node {
  name: "adanet/iteration_0/subnetwork_t0_dnn3/head/logits/assert_rank_at_least/static_checks_determined_all_ok"
  op: "NoOp"
}
node {
  name: "adanet/iteration_0/subnetwork_t0_dnn3/head/labels/ExpandDims/dim"
  op: "Const"
  attr {
    key: "_output_shapes"
    value {
      list {
        shape {
        }
      }
    }
  }
  attr {
    key: "dtype"
    value {
      type: DT_INT32
    }
  }
  attr {
    key: "value"
    value {
      tensor {
        dtype: DT_INT32
        tensor_shape {
        }
        int_val: -1
      }
    }
  }
}
node {
  name: "adanet/iteration_0/subnetwork_t0_dnn3/head/labels/ExpandDims"
  op: "ExpandDims"
  input: "IteratorGetNext:1"
  input: "adanet/iteration_0/subnetwork_t0_dnn3/head/labels/ExpandDims/dim"
  attr {
    key: "T"
    value {
      type: DT_DOUBLE
    }
  }
  attr {
    key: "Tdim"
    value {
      type: DT_INT32
    }
  }
  attr {
    key: "_output_shapes"
    value {
      list {
        shape {
          dim {
            size: -1
          }
          dim {
            size: 1
          }
        }
      }
    }
  }
}
node {
  name: "adanet/iteration_0/subnetwork_t0_dnn3/head/labels/Shape"
  op: "Shape"
  input: "adanet/iteration_0/subnetwork_t0_dnn3/head/labels/ExpandDims"
  attr {
    key: "T"
    value {
      type: DT_DOUBLE
    }
  }
  attr {
    key: "_output_shapes"
    value {
      list {
        shape {
          dim {
            size: 2
          }
        }
      }
    }
  }
  attr {
    key: "out_type"
    value {
      type: DT_INT32
    }
  }
}
node {
  name: "adanet/iteration_0/subnetwork_t0_dnn3/head/labels/Shape_1"
  op: "Shape"
  input: "adanet/iteration_0/subnetwork_t0_dnn3/model_fn/dnn/logits/BiasAdd"
  attr {
    key: "T"
    value {
      type: DT_FLOAT
    }
  }
  attr {
    key: "_output_shapes"
    value {
      list {
        shape {
          dim {
            size: 2
          }
        }
      }
    }
  }
  attr {
    key: "out_type"
    value {
      type: DT_INT32
    }
  }
}
node {
  name: "adanet/iteration_0/subnetwork_t0_dnn3/head/labels/assert_rank_at_least/rank"
  op: "Const"
  attr {
    key: "_output_shapes"
    value {
      list {
        shape {
        }
      }
    }
  }
  attr {
    key: "dtype"
    value {
      type: DT_INT32
    }
  }
  attr {
    key: "value"
    value {
      tensor {
        dtype: DT_INT32
        tensor_shape {
        }
        int_val: 2
      }
    }
  }
}
node {
  name: "adanet/iteration_0/subnetwork_t0_dnn3/head/labels/assert_rank_at_least/Shape"
  op: "Shape"
  input: "adanet/iteration_0/subnetwork_t0_dnn3/head/labels/ExpandDims"
  attr {
    key: "T"
    value {
      type: DT_DOUBLE
    }
  }
  attr {
    key: "_output_shapes"
    value {
      list {
        shape {
          dim {
            size: 2
          }
        }
      }
    }
  }
  attr {
    key: "out_type"
    value {
      type: DT_INT32
    }
  }
}
node {
  name: "adanet/iteration_0/subnetwork_t0_dnn3/head/labels/assert_rank_at_least/assert_type/statically_determined_correct_type"
  op: "NoOp"
}
node {
  name: "adanet/iteration_0/subnetwork_t0_dnn3/head/labels/assert_rank_at_least/static_checks_determined_all_ok"
  op: "NoOp"
}
node {
  name: "adanet/iteration_0/subnetwork_t0_dnn3/head/labels/strided_slice/stack"
  op: "Const"
  input: "^adanet/iteration_0/subnetwork_t0_dnn3/head/labels/assert_rank_at_least/static_checks_determined_all_ok"
  attr {
    key: "_output_shapes"
    value {
      list {
        shape {
          dim {
            size: 1
          }
        }
      }
    }
  }
  attr {
    key: "dtype"
    value {
      type: DT_INT32
    }
  }
  attr {
    key: "value"
    value {
      tensor {
        dtype: DT_INT32
        tensor_shape {
          dim {
            size: 1
          }
        }
        int_val: 0
      }
    }
  }
}
node {
  name: "adanet/iteration_0/subnetwork_t0_dnn3/head/labels/strided_slice/stack_1"
  op: "Const"
  input: "^adanet/iteration_0/subnetwork_t0_dnn3/head/labels/assert_rank_at_least/static_checks_determined_all_ok"
  attr {
    key: "_output_shapes"
    value {
      list {
        shape {
          dim {
            size: 1
          }
        }
      }
    }
  }
  attr {
    key: "dtype"
    value {
      type: DT_INT32
    }
  }
  attr {
    key: "value"
    value {
      tensor {
        dtype: DT_INT32
        tensor_shape {
          dim {
            size: 1
          }
        }
        int_val: -1
      }
    }
  }
}
node {
  name: "adanet/iteration_0/subnetwork_t0_dnn3/head/labels/strided_slice/stack_2"
  op: "Const"
  input: "^adanet/iteration_0/subnetwork_t0_dnn3/head/labels/assert_rank_at_least/static_checks_determined_all_ok"
  attr {
    key: "_output_shapes"
    value {
      list {
        shape {
          dim {
            size: 1
          }
        }
      }
    }
  }
  attr {
    key: "dtype"
    value {
      type: DT_INT32
    }
  }
  attr {
    key: "value"
    value {
      tensor {
        dtype: DT_INT32
        tensor_shape {
          dim {
            size: 1
          }
        }
        int_val: 1
      }
    }
  }
}
node {
  name: "adanet/iteration_0/subnetwork_t0_dnn3/head/labels/strided_slice"
  op: "StridedSlice"
…
      list {
        shape {
        }
      }
    }
  }
  attr {
    key: "use_locking"
    value {
      b: true
    }
  }
  attr {
    key: "validate_shape"
    value {
      b: true
    }
  }
}
node {
  name: "save/Assign_25"
  op: "Assign"
  input: "adanet/iteration_2/train_op/is_over/is_over_var_template/is_over_var"
  input: "save/RestoreV2:25"
  attr {
    key: "T"
    value {
      type: DT_BOOL
    }
  }
  attr {
    key: "_class"
    value {
      list {
        s: "loc:@adanet/iteration_2/train_op/is_over/is_over_var_template/is_over_var"
      }
    }
  }
  attr {
    key: "_output_shapes"
    value {
      list {
        shape {
        }
      }
    }
  }
  attr {
    key: "use_locking"
    value {
      b: true
    }
  }
  attr {
    key: "validate_shape"
    value {
      b: true
    }
  }
}
node {
  name: "save/Assign_26"
  op: "Assign"
  input: "current_iteration"
  input: "save/RestoreV2:26"
  attr {
    key: "T"
    value {
      type: DT_INT64
    }
  }
  attr {
    key: "_class"
    value {
      list {
        s: "loc:@current_iteration"
      }
    }
  }
  attr {
    key: "_output_shapes"
    value {
      list {
        shape {
        }
      }
    }
  }
  attr {
    key: "use_locking"
    value {
      b: true
    }
  }
  attr {
    key: "validate_shape"
    value {
      b: true
    }
  }
}
node {
  name: "save/Assign_27"
  op: "Assign"
  input: "global_step"
  input: "save/RestoreV2:27"
  attr {
    key: "T"
    value {
      type: DT_INT64
    }
  }
  attr {
    key: "_class"
    value {
      list {
        s: "loc:@global_step"
      }
    }
  }
  attr {
    key: "_output_shapes"
    value {
      list {
        shape {
        }
      }
    }
  }
  attr {
    key: "use_locking"
    value {
      b: true
    }
  }
  attr {
    key: "validate_shape"
    value {
      b: true
    }
  }
}
node {
  name: "save/restore_shard"
  op: "NoOp"
  input: "^save/Assign"
  input: "^save/Assign_1"
  input: "^save/Assign_10"
  input: "^save/Assign_11"
  input: "^save/Assign_12"
  input: "^save/Assign_13"
  input: "^save/Assign_14"
  input: "^save/Assign_15"
  input: "^save/Assign_16"
  input: "^save/Assign_17"
  input: "^save/Assign_18"
  input: "^save/Assign_19"
  input: "^save/Assign_2"
  input: "^save/Assign_20"
  input: "^save/Assign_21"
  input: "^save/Assign_22"
  input: "^save/Assign_23"
  input: "^save/Assign_24"
  input: "^save/Assign_25"
  input: "^save/Assign_26"
  input: "^save/Assign_27"
  input: "^save/Assign_3"
  input: "^save/Assign_4"
  input: "^save/Assign_5"
  input: "^save/Assign_6"
  input: "^save/Assign_7"
  input: "^save/Assign_8"
  input: "^save/Assign_9"
}
node {
  name: "save/RestoreV2_1/tensor_names"
  op: "Const"
  device: "/device:CPU:0"
  attr {
    key: "_output_shapes"
    value {
      list {
        shape {
          dim {
            size: 36
          }
        }
      }
    }
  }
  attr {
    key: "dtype"
    value {
      type: DT_STRING
    }
  }
  attr {
    key: "value"
    value {
      tensor {
        dtype: DT_STRING
        tensor_shape {
          dim {
            size: 36
          }
        }
        string_val: "adanet/iteration_0/subnetwork_t0_dnn3/model_fn/dnn/hiddenlayer_0/bias"
        string_val: "adanet/iteration_0/subnetwork_t0_dnn3/model_fn/dnn/hiddenlayer_0/kernel"
        string_val: "adanet/iteration_0/subnetwork_t0_dnn3/model_fn/dnn/hiddenlayer_1/bias"
        string_val: "adanet/iteration_0/subnetwork_t0_dnn3/model_fn/dnn/hiddenlayer_1/kernel"
        string_val: "adanet/iteration_0/subnetwork_t0_dnn3/model_fn/dnn/hiddenlayer_2/bias"
        string_val: "adanet/iteration_0/subnetwork_t0_dnn3/model_fn/dnn/hiddenlayer_2/kernel"
        string_val: "adanet/iteration_0/subnetwork_t0_dnn3/model_fn/dnn/logits/bias"
        string_val: "adanet/iteration_0/subnetwork_t0_dnn3/model_fn/dnn/logits/kernel"
        string_val: "adanet/iteration_2/subnetwork_t2_dnn2/model_fn/dnn/hiddenlayer_0/bias"
        string_val: "…"
        string_val: "adanet/iteration_2/subnetwork_t2_dnn2/model_fn/dnn/hiddenlayer_0/kernel"
        string_val: "…"
        string_val: "adanet/iteration_2/subnetwork_t2_dnn2/model_fn/dnn/hiddenlayer_1/bias"
        string_val: "…"
        string_val: "adanet/iteration_2/subnetwork_t2_dnn2/model_fn/dnn/hiddenlayer_1/kernel"
        string_val: "…"
        string_val: "adanet/iteration_2/subnetwork_t2_dnn2/model_fn/dnn/logits/bias"
        string_val: "…"
        string_val: "adanet/iteration_2/subnetwork_t2_dnn2/model_fn/dnn/logits/kernel"
        string_val: "…"
        string_val: "adanet/iteration_2/subnetwork_t2_dnn3/model_fn/dnn/hiddenlayer_0/bias"
        string_val: "…"
        string_val: "adanet/iteration_2/subnetwork_t2_dnn3/model_fn/dnn/hiddenlayer_0/kernel"
        string_val: "…"
        string_val: "adanet/iteration_2/subnetwork_t2_dnn3/model_fn/dnn/hiddenlayer_1/bias"
        string_val: "…"
        string_val: "adanet/iteration_2/subnetwork_t2_dnn3/model_fn/dnn/hiddenlayer_1/kernel"
        string_val: "…"
        string_val: "adanet/iteration_2/subnetwork_t2_dnn3/model_fn/dnn/hiddenlayer_2/bias"
        string_val: "…"
        string_val: "adanet/iteration_2/subnetwork_t2_dnn3/model_fn/dnn/hiddenlayer_2/kernel"
        string_val: "…"
        string_val: "adanet/iteration_2/subnetwork_t2_dnn3/model_fn/dnn/logits/bias"
        string_val: "…"
        string_val: "adanet/iteration_2/subnetwork_t2_dnn3/model_fn/dnn/logits/kernel"
        string_val: "…"
      }
    }
  }
}
node {
  name: "save/RestoreV2_1/shape_and_slices"
  op: "Const"
  device: "/device:CPU:0"
  attr {
    key: "_output_shapes"
    value {
      list {
        shape {
          dim {
            size: 36
          }
        }
      }
    }
  }
  attr {
    key: "dtype"
    value {
      type: DT_STRING
    }
  }
  attr {
    key: "value"
    value {
      tensor {
        dtype: DT_STRING
        tensor_shape {
          dim {
            size: 36
          }
        }
        string_val: "64 0,64"
        string_val: "13 64 0,13:0,64"
        string_val: "64 0,64"
        string_val: "64 64 0,64:0,64"
        string_val: "64 0,64"
        string_val: "64 64 0,64:0,64"
        string_val: "1 0,1"
        string_val: "64 1 0,64:0,1"
        string_val: "64 0,64"
        string_val: "64 0,64"
        string_val: "13 64 0,13:0,64"
        string_val: "13 64 0,13:0,64"
        string_val: "64 0,64"
        string_val: "64 0,64"
        string_val: "64 64 0,64:0,64"
        string_val: "64 64 0,64:0,64"
        string_val: "1 0,1"
        string_val: "1 0,1"
        string_val: "64 1 0,64:0,1"
        string_val: "64 1 0,64:0,1"
        string_val: "64 0,64"
        string_val: "64 0,64"
        string_val: "13 64 0,13:0,64"
        string_val: "13 64 0,13:0,64"
        string_val: "64 0,64"
        string_val: "64 0,64"
        string_val: "64 64 0,64:0,64"
        string_val: "64 64 0,64:0,64"
        string_val: "64 0,64"
        string_val: "64 0,64"
        string_val: "64 64 0,64:0,64"
        string_val: "64 64 0,64:0,64"
        string_val: "1 0,1"
        string_val: "1 0,1"
        string_val: "64 1 0,64:0,1"
        string_val: "64 1 0,64:0,1"
      }
    }
  }
}
node {
  name: "save/RestoreV2_1"
  op: "RestoreV2"
  input: "save/Const"
  input: "save/RestoreV2_1/tensor_names"
  input: "save/RestoreV2_1/shape_and_slices"
  device: "/device:CPU:0"
  attr {
    key: "_output_shapes"
    value {
      list {
        shape {
          dim {
            size: 64
          }
        }
        shape {
          dim {
            size: 13
          }
          dim {
            size: 64
          }
        }
        shape {
          dim {
            size: 64
          }
        }
        shape {
          dim {
            size: 64
          }
          dim {
            size: 64
          }
        }
        shape {
          dim {
            size: 64
          }
        }
        shape {
          dim {
            size: 64
          }
          dim {
            size: 64
          }
        }
        shape {
          dim {
            size: 1
          }
        }
        shape {
          dim {
            size: 64
          }
          dim {
            size: 1
          }
        }
        shape {
          dim {
            size: 64
          }
        }
        shape {
          dim {
            size: 64
          }
        }
        shape {
          dim {
            size: 13
          }
          dim {
            size: 64
          }
        }
        shape {
          dim {
            size: 13
          }
          dim {
            size: 64
          }
        }
        shape {
          dim {
            size: 64
          }
        }
        shape {
          dim {
            size: 64
          }
        }
        shape {
          dim {
            size: 64
          }
          dim {
            size: 64
          }
        }
        shape {
          dim {
            size: 64
          }
          dim {
            size: 64
          }
        }
        shape {
          dim {
            size: 1
          }
        }
        shape {
          dim {
            size: 1
          }
        }
        shape {
          dim {
            size: 64
          }
          dim {
            size: 1
          }
        }
        shape {
          dim {
            size: 64
          }
          dim {
            size: 1
          }
        }
        shape {
          dim {
            size: 64
          }
        }
        shape {
          dim {
            size: 64
          }
        }
        shape {
          dim {
            size: 13
          }
          dim {
            size: 64
          }
        }
        shape {
          dim {
            size: 13
          }
          dim {
            size: 64
          }
        }
        shape {
          dim {
            size: 64
          }
        }
        shape {
          dim {
            size: 64
          }
        }
        shape {
          dim {
            size: 64
          }
          dim {
            size: 64
          }
        }
        shape {
          dim {
            size: 64
          }
          dim {
            size: 64
          }
        }
        shape {
          dim {
            size: 64
          }
        }
        shape {
          dim {
            size: 64
          }
        }
        shape {
          dim {
            size: 64
          }
          dim {
            size: 64
          }
        }
        shape {
          dim {
            size: 64
          }
          dim {
            size: 64
          }
        }
        shape {
          dim {
            size: 1
          }
        }
        shape {
          dim {
            size: 1
          }
        }
        shape {
          dim {
            size: 64
          }
          dim {
            size: 1
          }
        }
        shape {
          dim {
            size: 64
          }
          dim {
            size: 1
          }
        }
      }
    }
  }
  attr {
    key: "dtypes"
    value {
      list {
        type: DT_FLOAT
        type: DT_FLOAT
        type: DT_FLOAT
        type: DT_FLOAT
        type: DT_FLOAT
        type: DT_FLOAT
        type: DT_FLOAT
        type: DT_FLOAT
        type: DT_FLOAT
        type: DT_FLOAT
        type: DT_FLOAT
        type: DT_FLOAT
        type: DT_FLOAT
        type: DT_FLOAT
        type: DT_FLOAT
        type: DT_FLOAT
        type: DT_FLOAT
        type: DT_FLOAT
        type: DT_FLOAT
        type: DT_FLOAT
        type: DT_FLOAT
        type: DT_FLOAT
        type: DT_FLOAT
        type: DT_FLOAT
        type: DT_FLOAT
        type: DT_FLOAT
        type: DT_FLOAT
        type: DT_FLOAT
        type: DT_FLOAT
        type: DT_FLOAT
        type: DT_FLOAT
        type: DT_FLOAT
        type: DT_FLOAT
        type: DT_FLOAT
        type: DT_FLOAT
        type: DT_FLOAT
      }
    }
  }
}
node {
  name: "save/Identity_145"
  op: "Identity"
  input: "save/RestoreV2_1"
  device: "/device:CPU:0"
  attr {
    key: "T"
    value {
      type: DT_FLOAT
    }
  }
  attr {
    key: "_output_shapes"
    value {
      list {
        shape {
          dim {
            size: 64
          }
        }
      }
    }
  }
}
node {
  name: "save/AssignVariableOp"
  op: "AssignVariableOp"
  input: "adanet/iteration_0/subnetwork_t0_dnn3/model_fn/dnn/hiddenlayer_0/bias/part_0"
  input: "save/Identity_145"
  device: "/device:CPU:0"
  attr {
    key: "dtype"
    value {
      type: DT_FLOAT
    }
  }
}
node {
  name: "save/Identity_146"
  op: "Identity"
  input: "save/RestoreV2_1:1"
  device: "/device:CPU:0"
  attr {
    key: "T"
    value {
      type: DT_FLOAT
    }
  }
  attr {
    key: "_output_shapes"
    value {
      list {
        shape {
          dim {
            size: 13
          }
          dim {
            size: 64
          }
        }
      }
    }
  }
}
node {
  name: "save/AssignVariableOp_1"
  op: "AssignVariableOp"
  input: "adanet/iteration_0/subnetwork_t0_dnn3/model_fn/dnn/hiddenlayer_0/kernel/part_0"
  input: "save/Identity_146"
  device: "/device:CPU:0"
  attr {
    key: "dtype"
    value {
      type: DT_FLOAT
    }
  }
}
node {
  name: "save/Identity_147"
  op: "Identity"
  input: "save/RestoreV2_1:2"
  device: "/device:CPU:0"
  attr {
    key: "T"
    value {
      type: DT_FLOAT
    }
  }
  attr {
    key: "_output_shapes"
    value {
      list {
        shape {
          dim {
            size: 64
          }
        }
      }
    }
  }
}
node {
  name: "save/AssignVariableOp_2"
  op: "AssignVariableOp"
  input: "adanet/iteration_0/subnetwork_t0_dnn3/model_fn/dnn/hiddenlayer_1/bias/part_0"
  input: "save/Identity_147"
  device: "/device:CPU:0"
  attr {
    key: "dtype"
    value {
      type: DT_FLOAT
    }
  }
}
node {
  name: "save/Identity_148"
  op: "Identity"
  input: "save/RestoreV2_1:3"
  device: "/device:CPU:0"
  attr {
    key: "T"
    value {
      type: DT_FLOAT
    }
  }
  attr {
    key: "_output_shapes"
    value {
      list {
        shape {
          dim {
            size: 64
          }
          dim {
            size: 64
          }
        }
      }
    }
  }
}
node {
  name: "save/AssignVariableOp_3"
  op: "AssignVariableOp"
  input: "adanet/iteration_0/subnetwork_t0_dnn3/model_fn/dnn/hiddenlayer_1/kernel/part_0"
  input: "save/Identity_148"
  device: "/device:CPU:0"
  attr {
    key: "dtype"
    value {
      type: DT_FLOAT
    }
  }
}
node {
  name: "save/Identity_149"
  op: "Identity"
  input: "save/RestoreV2_1:4"
  device: "/device:CPU:0"
  attr {
    key: "T"
    value {
      type: DT_FLOAT
    }
  }
  attr {
    key: "_output_shapes"
    value {
      list {
        shape {
          dim {
            size: 64
          }
        }
      }
    }
  }
}
node {
  name: "save/AssignVariableOp_4"
  op: "AssignVariableOp"
  input: "adanet/iteration_0/subnetwork_t0_dnn3/model_fn/dnn/hiddenlayer_2/bias/part_0"
  input: "save/Identity_149"
  device: "/device:CPU:0"
  attr {
    key: "dtype"
    value {
      type: DT_FLOAT
    }
  }
}
node {
  name: "save/Identity_150"
  op: "Identity"
  input: "save/RestoreV2_1:5"
  device: "/device:CPU:0"
  attr {
    key: "T"
    value {
      type: DT_FLOAT
    }
  }
  attr {
    key: "_output_shapes"
    value {
      list {
        shape {
          dim {
            size: 64
          }
          dim {
            size: 64
          }
        }
      }
    }
  }
}
node {
  name: "save/AssignVariableOp_5"
  op: "AssignVariableOp"
  input: "adanet/iteration_0/subnetwork_t0_dnn3/model_fn/dnn/hiddenlayer_2/kernel/part_0"
  input: "save/Identity_150"
  device: "/device:CPU:0"
  attr {
    key: "dtype"
    value {
      type: DT_FLOAT
    }
  }
}
node {
  name: "save/Identity_151"
  op: "Identity"
  input: "save/RestoreV2_1:6"
  device: "/device:CPU:0"
  attr {
    key: "T"
    value {
      type: DT_FLOAT
    }
  }
  attr {
    key: "_output_shapes"
    value {
      list {
        shape {
          dim {
            size: 1
          }
        }
      }
    }
  }
}
node {
  name: "save/AssignVariableOp_6"
  op: "AssignVariableOp"
  input: "adanet/iteration_0/subnetwork_t0_dnn3/model_fn/dnn/logits/bias/part_0"
  input: "save/Identity_151"
  device: "/device:CPU:0"
  attr {
    key: "dtype"
    value {
      type: DT_FLOAT
    }
  }
}
node {
  name: "save/Identity_152"
  op: "Identity"
  input: "save/RestoreV2_1:7"
  device: "/device:CPU:0"
  attr {
    key: "T"
    value {
      type: DT_FLOAT
    }
  }
  attr {
    key: "_output_shapes"
    value {
      list {
        shape {
          dim {
            size: 64
          }
          dim {
            size: 1
          }
        }
      }
    }
  }
}
node {
  name: "save/AssignVariableOp_7"
  op: "AssignVariableOp"
  input: "adanet/iteration_0/subnetwork_t0_dnn3/model_fn/dnn/logits/kernel/part_0"
  input: "save/Identity_152"
  device: "/device:CPU:0"
  attr {
    key: "dtype"
    value {
      type: DT_FLOAT
    }
  }
}
node {
  name: "save/Identity_153"
  op: "Identity"
  input: "save/RestoreV2_1:8"
  device: "/device:CPU:0"
  attr {
    key: "T"
    value {
      type: DT_FLOAT
    }
  }
  attr {
    key: "_output_shapes"
    value {
      list {
        shape {
          dim {
            size: 64
          }
        }
      }
    }
  }
}
node {
  name: "save/AssignVariableOp_8"
  op: "AssignVariableOp"
  input: "adanet/iteration_2/subnetwork_t2_dnn2/model_fn/dnn/hiddenlayer_0/bias/part_0"
  input: "save/Identity_153"
  device: "/device:CPU:0"
  attr {
    key: "dtype"
    value {
      type: DT_FLOAT
    }
  }
}
node {
  name: "save/Identity_154"
  op: "Identity"
  input: "save/RestoreV2_1:9"
  device: "/device:CPU:0"
  attr {
    key: "T"
    value {
      type: DT_FLOAT
    }
  }
  attr {
    key: "_output_shapes"
    value {
      list {
        shape {
          dim {
            size: 64
          }
        }
      }
    }
  }
}
node {
  name: "save/AssignVariableOp_9"
  op: "AssignVariableOp"
  input: "adanet/iteration_2/subnetwork_t2_dnn2/model_fn/dnn/adanet/iteration_2/subnetwork_t2_dnn2/model_fn/dnn/hiddenlayer_0/bias/part_0/ProximalAdagrad"
  input: "save/Identity_154"
  device: "/device:CPU:0"
  attr {
    key: "dtype"
    value {
      type: DT_FLOAT
    }
  }
}
node {
  name: "save/Identity_155"
  op: "Identity"
  input: "save/RestoreV2_1:10"
  device: "/device:CPU:0"
  attr {
    key: "T"
    value {
      type: DT_FLOAT
    }
  }
  attr {
    key: "_output_shapes"
    value {
      list {
        shape {
          dim {
            size: 13
          }
          dim {
            size: 64
          }
        }
      }
    }
  }
}
node {
  name: "save/AssignVariableOp_10"
  op: "AssignVariableOp"
  input: "adanet/iteration_2/subnetwork_t2_dnn2/model_fn/dnn/hiddenlayer_0/kernel/part_0"
  input: "save/Identity_155"
  device: "/device:CPU:0"
  attr {
    key: "dtype"
    value {
      type: DT_FLOAT
    }
  }
}
node {
  name: "save/Identity_156"
  op: "Identity"
  input: "save/RestoreV2_1:11"
  device: "/device:CPU:0"
  attr {
    key: "T"
    value {
      type: DT_FLOAT
    }
  }
  attr {
    key: "_output_shapes"
    value {
      list {
        shape {
          dim {
            size: 13
          }
          dim {
            size: 64
          }
        }
      }
    }
  }
}
node {
  name: "save/AssignVariableOp_11"
  op: "AssignVariableOp"
  input: "adanet/iteration_2/subnetwork_t2_dnn2/model_fn/dnn/adanet/iteration_2/subnetwork_t2_dnn2/model_fn/dnn/hiddenlayer_0/kernel/part_0/ProximalAdagrad"
  input: "save/Identity_156"
  device: "/device:CPU:0"
  attr {
    key: "dtype"
    value {
      type: DT_FLOAT
    }
  }
}
node {
  name: "save/Identity_157"
  op: "Identity"
  input: "save/RestoreV2_1:12"
  device: "/device:CPU:0"
  attr {
    key: "T"
    value {
      type: DT_FLOAT
    }
  }
  attr {
    key: "_output_shapes"
    value {
      list {
        shape {
          dim {
            size: 64
          }
        }
      }
    }
  }
}
node {
  name: "save/AssignVariableOp_12"
  op: "AssignVariableOp"
  input: "adanet/iteration_2/subnetwork_t2_dnn2/model_fn/dnn/hiddenlayer_1/bias/part_0"
  input: "save/Identity_157"
  device: "/device:CPU:0"
  attr {
    key: "dtype"
    value {
      type: DT_FLOAT
    }
  }
}
node {
  name: "save/Identity_158"
  op: "Identity"
  input: "save/RestoreV2_1:13"
  device: "/device:CPU:0"
  attr {
    key: "T"
    value {
      type: DT_FLOAT
    }
  }
  attr {
    key: "_output_shapes"
    value {
      list {
        shape {
          dim {
            size: 64
          }
        }
      }
    }
  }
}
node {
  name: "save/AssignVariableOp_13"
  op: "AssignVariableOp"
  input: "adanet/iteration_2/subnetwork_t2_dnn2/model_fn/dnn/adanet/iteration_2/subnetwork_t2_dnn2/model_fn/dnn/hiddenlayer_1/bias/part_0/ProximalAdagrad"
  input: "save/Identity_158"
  device: "/device:CPU:0"
  attr {
    key: "dtype"
    value {
      type: DT_FLOAT
    }
  }
}
node {
  name: "save/Identity_159"
  op: "Identity"
  input: "save/RestoreV2_1:14"
  device: "/device:CPU:0"
  attr {
    key: "T"
    value {
      type: DT_FLOAT
    }
  }
  attr {
    key: "_output_shapes"
    value {
      list {
        shape {
          dim {
            size: 64
          }
          dim {
            size: 64
          }
        }
      }
    }
  }
}
node {
  name: "save/AssignVariableOp_14"
  op: "AssignVariableOp"
  input: "adanet/iteration_2/subnetwork_t2_dnn2/model_fn/dnn/hiddenlayer_1/kernel/part_0"
  input: "save/Identity_159"
  device: "/device:CPU:0"
  attr {
    key: "dtype"
    value {
      type: DT_FLOAT
    }
  }
}
node {
  name: "save/Identity_160"
  op: "Identity"
  input: "save/RestoreV2_1:15"
  device: "/device:CPU:0"
  attr {
    key: "T"
    value {
      type: DT_FLOAT
    }
  }
  attr {
    key: "_output_shapes"
    value {
      list {
        shape {
          dim {
            size: 64
          }
          dim {
            size: 64
          }
        }
      }
    }
  }
}
node {
  name: "save/AssignVariableOp_15"
  op: "AssignVariableOp"
  input: "adanet/iteration_2/subnetwork_t2_dnn2/model_fn/dnn/adanet/iteration_2/subnetwork_t2_dnn2/model_fn/dnn/hiddenlayer_1/kernel/part_0/ProximalAdagrad"
  input: "save/Identity_160"
  device: "/device:CPU:0"
  attr {
    key: "dtype"
    value {
      type: DT_FLOAT
    }
  }
}
node {
  name: "save/Identity_161"
  op: "Identity"
  input: "save/RestoreV2_1:16"
  device: "/device:CPU:0"
  attr {
    key: "T"
    value {
      type: DT_FLOAT
    }
  }
  attr {
    key: "_output_shapes"
    value {
      list {
        shape {
          dim {
            size: 1
          }
        }
      }
    }
  }
}
node {
  name: "save/AssignVariableOp_16"
  op: "AssignVariableOp"
  input: "adanet/iteration_2/subnetwork_t2_dnn2/model_fn/dnn/logits/bias/part_0"
  input: "save/Identity_161"
  device: "/device:CPU:0"
  attr {
    key: "dtype"
    value {
      type: DT_FLOAT
    }
  }
}
node {
  name: "save/Identity_162"
  op: "Identity"
  input: "save/RestoreV2_1:17"
  device: "/device:CPU:0"
  attr {
    key: "T"
    value {
      type: DT_FLOAT
    }
  }
  attr {
    key: "_output_shapes"
    value {
      list {
        shape {
          dim {
            size: 1
          }
        }
      }
    }
  }
}
node {
  name: "save/AssignVariableOp_17"
  op: "AssignVariableOp"
  input: "adanet/iteration_2/subnetwork_t2_dnn2/model_fn/dnn/adanet/iteration_2/subnetwork_t2_dnn2/model_fn/dnn/logits/bias/part_0/ProximalAdagrad"
  input: "save/Identity_162"
  device: "/device:CPU:0"
  attr {
    key: "dtype"
    value {
      type: DT_FLOAT
    }
  }
}
node {
  name: "save/Identity_163"
  op: "Identity"
  input: "save/RestoreV2_1:18"
  device: "/device:CPU:0"
  attr {
    key: "T"
    value {
      type: DT_FLOAT
    }
  }
  attr {
    key: "_output_shapes"
    value {
      list {
        shape {
          dim {
            size: 64
          }
          dim {
            size: 1
          }
        }
      }
    }
  }
}
node {
  name: "save/AssignVariableOp_18"
  op: "AssignVariableOp"
  input: "adanet/iteration_2/subnetwork_t2_dnn2/model_fn/dnn/logits/kernel/part_0"
  input: "save/Identity_163"
  device: "/device:CPU:0"
  attr {
    key: "dtype"
    value {
      type: DT_FLOAT
    }
  }
}
node {
  name: "save/Identity_164"
  op: "Identity"
  input: "save/RestoreV2_1:19"
  device: "/device:CPU:0"
  attr {
    key: "T"
    value {
      type: DT_FLOAT
    }
  }
  attr {
    key: "_output_shapes"
    value {
      list {
        shape {
          dim {
            size: 64
          }
          dim {
            size: 1
          }
        }
      }
    }
  }
}
node {
  name: "save/AssignVariableOp_19"
  op: "AssignVariableOp"
  input: "adanet/iteration_2/subnetwork_t2_dnn2/model_fn/dnn/adanet/iteration_2/subnetwork_t2_dnn2/model_fn/dnn/logits/kernel/part_0/ProximalAdagrad"
  input: "save/Identity_164"
  device: "/device:CPU:0"
  attr {
    key: "dtype"
    value {
      type: DT_FLOAT
    }
  }
}
node {
  name: "save/Identity_165"
  op: "Identity"
  input: "save/RestoreV2_1:20"
  device: "/device:CPU:0"
  attr {
    key: "T"
    value {
      type: DT_FLOAT
    }
  }
  attr {
    key: "_output_shapes"
    value {
      list {
        shape {
          dim {
            size: 64
          }
        }
      }
    }
  }
}
node {
  name: "save/AssignVariableOp_20"
  op: "AssignVariableOp"
  input: "adanet/iteration_2/subnetwork_t2_dnn3/model_fn/dnn/hiddenlayer_0/bias/part_0"
  input: "save/Identity_165"
  device: "/device:CPU:0"
  attr {
    key: "dtype"
    value {
      type: DT_FLOAT
    }
  }
}
node {
  name: "save/Identity_166"
  op: "Identity"
  input: "save/RestoreV2_1:21"
  device: "/device:CPU:0"
  attr {
    key: "T"
    value {
      type: DT_FLOAT
    }
  }
  attr {
    key: "_output_shapes"
    value {
      list {
        shape {
          dim {
            size: 64
          }
        }
      }
    }
  }
}
node {
  name: "save/AssignVariableOp_21"
  op: "AssignVariableOp"
  input: "adanet/iteration_2/subnetwork_t2_dnn3/model_fn/dnn/adanet/iteration_2/subnetwork_t2_dnn3/model_fn/dnn/hiddenlayer_0/bias/part_0/ProximalAdagrad"
  input: "save/Identity_166"
  device: "/device:CPU:0"
  attr {
    key: "dtype"
    value {
      type: DT_FLOAT
    }
  }
}
node {
  name: "save/Identity_167"
  op: "Identity"
  input: "save/RestoreV2_1:22"
  device: "/device:CPU:0"
  attr {
    key: "T"
    value {
      type: DT_FLOAT
    }
  }
  attr {
    key: "_output_shapes"
    value {
      list {
        shape {
          dim {
            size: 13
          }
          dim {
            size: 64
          }
        }
      }
    }
  }
}
node {
  name: "save/AssignVariableOp_22"
  op: "AssignVariableOp"
  input: "adanet/iteration_2/subnetwork_t2_dnn3/model_fn/dnn/hiddenlayer_0/kernel/part_0"
  input: "save/Identity_167"
  device: "/device:CPU:0"
  attr {
    key: "dtype"
    value {
      type: DT_FLOAT
    }
  }
}
node {
  name: "save/Identity_168"
  op: "Identity"
  input: "save/RestoreV2_1:23"
  device: "/device:CPU:0"
  attr {
    key: "T"
    value {
      type: DT_FLOAT
    }
  }
  attr {
    key: "_output_shapes"
    value {
      list {
        shape {
          dim {
            size: 13
          }
          dim {
            size: 64
          }
        }
      }
    }
  }
}
node {
  name: "save/AssignVariableOp_23"
  op: "AssignVariableOp"
  input: "adanet/iteration_2/subnetwork_t2_dnn3/model_fn/dnn/adanet/iteration_2/subnetwork_t2_dnn3/model_fn/dnn/hiddenlayer_0/kernel/part_0/ProximalAdagrad"
  input: "save/Identity_168"
  device: "/device:CPU:0"
  attr {
    key: "dtype"
    value {
      type: DT_FLOAT
    }
  }
}
node {
  name: "save/Identity_169"
  op: "Identity"
  input: "save/RestoreV2_1:24"
  device: "/device:CPU:0"
  attr {
    key: "T"
    value {
      type: DT_FLOAT
    }
  }
  attr {
    key: "_output_shapes"
    value {
      list {
        shape {
          dim {
            size: 64
          }
        }
      }
    }
  }
}
node {
  name: "save/AssignVariableOp_24"
  op: "AssignVariableOp"
  input: "adanet/iteration_2/subnetwork_t2_dnn3/model_fn/dnn/hiddenlayer_1/bias/part_0"
  input: "save/Identity_169"
  device: "/device:CPU:0"
  attr {
    key: "dtype"
    value {
      type: DT_FLOAT
    }
  }
}
node {
  name: "save/Identity_170"
  op: "Identity"
  input: "save/RestoreV2_1:25"
  device: "/device:CPU:0"
  attr {
    key: "T"
    value {
      type: DT_FLOAT
    }
  }
  attr {
    key: "_output_shapes"
    value {
      list {
        shape {
          dim {
            size: 64
          }
        }
      }
    }
  }
}
node {
  name: "save/AssignVariableOp_25"
  op: "AssignVariableOp"
  input: "adanet/iteration_2/subnetwork_t2_dnn3/model_fn/dnn/adanet/iteration_2/subnetwork_t2_dnn3/model_fn/dnn/hiddenlayer_1/bias/part_0/ProximalAdagrad"
  input: "save/Identity_170"
  device: "/device:CPU:0"
  attr {
    key: "dtype"
    value {
      type: DT_FLOAT
    }
  }
}
node {
  name: "save/Identity_171"
  op: "Identity"
  input: "save/RestoreV2_1:26"
  device: "/device:CPU:0"
  attr {
    key: "T"
    value {
      type: DT_FLOAT
    }
  }
  attr {
    key: "_output_shapes"
    value {
      list {
        shape {
          dim {
            size: 64
          }
          dim {
            size: 64
          }
        }
      }
    }
  }
}
node {
  name: "save/AssignVariableOp_26"
  op: "AssignVariableOp"
  input: "adanet/iteration_2/subnetwork_t2_dnn3/model_fn/dnn/hiddenlayer_1/kernel/part_0"
  input: "save/Identity_171"
  device: "/device:CPU:0"
  attr {
    key: "dtype"
    value {
      type: DT_FLOAT
    }
  }
}
node {
  name: "save/Identity_172"
  op: "Identity"
  input: "save/RestoreV2_1:27"
  device: "/device:CPU:0"
  attr {
    key: "T"
    value {
      type: DT_FLOAT
    }
  }
  attr {
    key: "_output_shapes"
    value {
      list {
        shape {
          dim {
            size: 64
          }
          dim {
            size: 64
          }
        }
      }
    }
  }
}
node {
  name: "save/AssignVariableOp_27"
  op: "AssignVariableOp"
  input: "adanet/iteration_2/subnetwork_t2_dnn3/model_fn/dnn/adanet/iteration_2/subnetwork_t2_dnn3/model_fn/dnn/hiddenlayer_1/kernel/part_0/ProximalAdagrad"
  input: "save/Identity_172"
  device: "/device:CPU:0"
  attr {
    key: "dtype"
    value {
      type: DT_FLOAT
    }
  }
}
node {
  name: "save/Identity_173"
  op: "Identity"
  input: "save/RestoreV2_1:28"
  device: "/device:CPU:0"
  attr {
    key: "T"
    value {
      type: DT_FLOAT
    }
  }
  attr {
    key: "_output_shapes"
    value {
      list {
        shape {
          dim {
            size: 64
          }
        }
      }
    }
  }
}
node {
  name: "save/AssignVariableOp_28"
  op: "AssignVariableOp"
  input: "adanet/iteration_2/subnetwork_t2_dnn3/model_fn/dnn/hiddenlayer_2/bias/part_0"
  input: "save/Identity_173"
  device: "/device:CPU:0"
  attr {
    key: "dtype"
    value {
      type: DT_FLOAT
    }
  }
}
node {
  name: "save/Identity_174"
  op: "Identity"
  input: "save/RestoreV2_1:29"
  device: "/device:CPU:0"
  attr {
    key: "T"
    value {
      type: DT_FLOAT
    }
  }
  attr {
    key: "_output_shapes"
    value {
      list {
        shape {
          dim {
            size: 64
          }
        }
      }
    }
  }
}
node {
  name: "save/AssignVariableOp_29"
  op: "AssignVariableOp"
  input: "adanet/iteration_2/subnetwork_t2_dnn3/model_fn/dnn/adanet/iteration_2/subnetwork_t2_dnn3/model_fn/dnn/hiddenlayer_2/bias/part_0/ProximalAdagrad"
  input: "save/Identity_174"
  device: "/device:CPU:0"
  attr {
    key: "dtype"
    value {
      type: DT_FLOAT
    }
  }
}
node {
  name: "save/Identity_175"
  op: "Identity"
  input: "save/RestoreV2_1:30"
  device: "/device:CPU:0"
  attr {
    key: "T"
    value {
      type: DT_FLOAT
    }
  }
  attr {
    key: "_output_shapes"
    value {
      list {
        shape {
          dim {
            size: 64
          }
          dim {
            size: 64
          }
        }
      }
    }
  }
}
node {
  name: "save/AssignVariableOp_30"
  op: "AssignVariableOp"
  input: "adanet/iteration_2/subnetwork_t2_dnn3/model_fn/dnn/hiddenlayer_2/kernel/part_0"
  input: "save/Identity_175"
  device: "/device:CPU:0"
  attr {
    key: "dtype"
    value {
      type: DT_FLOAT
    }
  }
}
node {
  name: "save/Identity_176"
  op: "Identity"
  input: "save/RestoreV2_1:31"
  device: "/device:CPU:0"
  attr {
    key: "T"
    value {
      type: DT_FLOAT
    }
  }
  attr {
    key: "_output_shapes"
    value {
      list {
        shape {
          dim {
            size: 64
          }
          dim {
            size: 64
          }
        }
      }
    }
  }
}
node {
  name: "save/AssignVariableOp_31"
  op: "AssignVariableOp"
  input: "adanet/iteration_2/subnetwork_t2_dnn3/model_fn/dnn/adanet/iteration_2/subnetwork_t2_dnn3/model_fn/dnn/hiddenlayer_2/kernel/part_0/ProximalAdagrad"
  input: "save/Identity_176"
  device: "/device:CPU:0"
  attr {
    key: "dtype"
    value {
      type: DT_FLOAT
    }
  }
}
node {
  name: "save/Identity_177"
  op: "Identity"
  input: "save/RestoreV2_1:32"
  device: "/device:CPU:0"
  attr {
    key: "T"
    value {
      type: DT_FLOAT
    }
  }
  attr {
    key: "_output_shapes"
    value {
      list {
        shape {
          dim {
            size: 1
          }
        }
      }
    }
  }
}
node {
  name: "save/AssignVariableOp_32"
  op: "AssignVariableOp"
  input: "adanet/iteration_2/subnetwork_t2_dnn3/model_fn/dnn/logits/bias/part_0"
  input: "save/Identity_177"
  device: "/device:CPU:0"
  attr {
    key: "dtype"
    value {
      type: DT_FLOAT
    }
  }
}
node {
  name: "save/Identity_178"
  op: "Identity"
  input: "save/RestoreV2_1:33"
  device: "/device:CPU:0"
  attr {
    key: "T"
    value {
      type: DT_FLOAT
    }
  }
  attr {
    key: "_output_shapes"
    value {
      list {
        shape {
          dim {
            size: 1
          }
        }
      }
    }
  }
}
node {
  name: "save/AssignVariableOp_33"
  op: "AssignVariableOp"
  input: "adanet/iteration_2/subnetwork_t2_dnn3/model_fn/dnn/adanet/iteration_2/subnetwork_t2_dnn3/model_fn/dnn/logits/bias/part_0/ProximalAdagrad"
  input: "save/Identity_178"
  device: "/device:CPU:0"
  attr {
    key: "dtype"
    value {
      type: DT_FLOAT
    }
  }
}
node {
  name: "save/Identity_179"
  op: "Identity"
  input: "save/RestoreV2_1:34"
  device: "/device:CPU:0"
  attr {
    key: "T"
    value {
      type: DT_FLOAT
    }
  }
  attr {
    key: "_output_shapes"
    value {
      list {
        shape {
          dim {
            size: 64
          }
          dim {
            size: 1
          }
        }
      }
    }
  }
}
node {
  name: "save/AssignVariableOp_34"
  op: "AssignVariableOp"
  input: "adanet/iteration_2/subnetwork_t2_dnn3/model_fn/dnn/logits/kernel/part_0"
  input: "save/Identity_179"
  device: "/device:CPU:0"
  attr {
    key: "dtype"
    value {
      type: DT_FLOAT
    }
  }
}
node {
  name: "save/Identity_180"
  op: "Identity"
  input: "save/RestoreV2_1:35"
  device: "/device:CPU:0"
  attr {
    key: "T"
    value {
      type: DT_FLOAT
    }
  }
  attr {
    key: "_output_shapes"
    value {
      list {
        shape {
          dim {
            size: 64
          }
          dim {
            size: 1
          }
        }
      }
    }
  }
}
node {
  name: "save/AssignVariableOp_35"
  op: "AssignVariableOp"
  input: "adanet/iteration_2/subnetwork_t2_dnn3/model_fn/dnn/adanet/iteration_2/subnetwork_t2_dnn3/model_fn/dnn/logits/kernel/part_0/ProximalAdagrad"
  input: "save/Identity_180"
  device: "/device:CPU:0"
  attr {
    key: "dtype"
    value {
      type: DT_FLOAT
    }
  }
}
node {
  name: "save/restore_shard_1"
  op: "NoOp"
  input: "^save/AssignVariableOp"
  input: "^save/AssignVariableOp_1"
  input: "^save/AssignVariableOp_10"
  input: "^save/AssignVariableOp_11"
  input: "^save/AssignVariableOp_12"
  input: "^save/AssignVariableOp_13"
  input: "^save/AssignVariableOp_14"
  input: "^save/AssignVariableOp_15"
  input: "^save/AssignVariableOp_16"
  input: "^save/AssignVariableOp_17"
  input: "^save/AssignVariableOp_18"
  input: "^save/AssignVariableOp_19"
  input: "^save/AssignVariableOp_2"
  input: "^save/AssignVariableOp_20"
  input: "^save/AssignVariableOp_21"
  input: "^save/AssignVariableOp_22"
  input: "^save/AssignVariableOp_23"
  input: "^save/AssignVariableOp_24"
  input: "^save/AssignVariableOp_25"
  input: "^save/AssignVariableOp_26"
  input: "^save/AssignVariableOp_27"
  input: "^save/AssignVariableOp_28"
  input: "^save/AssignVariableOp_29"
  input: "^save/AssignVariableOp_3"
  input: "^save/AssignVariableOp_30"
  input: "^save/AssignVariableOp_31"
  input: "^save/AssignVariableOp_32"
  input: "^save/AssignVariableOp_33"
  input: "^save/AssignVariableOp_34"
  input: "^save/AssignVariableOp_35"
  input: "^save/AssignVariableOp_4"
  input: "^save/AssignVariableOp_5"
  input: "^save/AssignVariableOp_6"
  input: "^save/AssignVariableOp_7"
  input: "^save/AssignVariableOp_8"
  input: "^save/AssignVariableOp_9"
  device: "/device:CPU:0"
}
node {
  name: "save/restore_all/NoOp"
  op: "NoOp"
  input: "^save/restore_shard"
}
node {
  name: "save/restore_all/NoOp_1"
  op: "NoOp"
  input: "^save/restore_shard_1"
  device: "/device:CPU:0"
}
node {
  name: "save/restore_all"
  op: "NoOp"
  input: "^save/restore_all/NoOp"
  input: "^save/restore_all/NoOp_1"
}
library {
  function {
    signature {
      name: "_make_dataset_aDBaNS2H9to"
      output_arg {
        name: "modeldataset"
        type: DT_VARIANT
      }
      description: "Factory function for a dataset."
      is_stateful: true
    }
    node_def {
      name: "optimizations"
      op: "Const"
      device: "/device:CPU:0"
      attr {
        key: "dtype"
        value {
          type: DT_STRING
        }
      }
      attr {
        key: "value"
        value {
          tensor {
            dtype: DT_STRING
            tensor_shape {
              dim {
                size: 3
              }
            }
            string_val: "map_and_batch_fusion"
            string_val: "noop_elimination"
            string_val: "shuffle_and_repeat_fusion"
          }
        }
      }
    }
    node_def {
      name: "OptimizeDataset/Log1p/x"
      op: "Const"
      device: "/device:CPU:0"
      attr {
        key: "dtype"
        value {
          type: DT_DOUBLE
        }
      }
      attr {
        key: "value"
        value {
          tensor {
            dtype: DT_DOUBLE
            tensor_shape {
              dim {
                size: 404
              }
              dim {
                size: 13
              }
            }
            tensor_content: "…"
          }
        }
      }
    }
    node_def {
      name: "OptimizeDataset/Log1p"
      op: "Log1p"
      input: "OptimizeDataset/Log1p/x:output:0"
      device: "/device:CPU:0"
      attr {
        key: "T"
        value {
          type: DT_DOUBLE
        }
      }
    }
    node_def {
      name: "OptimizeDataset/Log1p_1/x"
      op: "Const"
      device: "/device:CPU:0"
      attr {
        key: "dtype"
        value {
          type: DT_DOUBLE
        }
      }
      attr {
        key: "value"
        value {
          tensor {
            dtype: DT_DOUBLE
            tensor_shape {
              dim {
                size: 404
              }
            }
            tensor_content: "…"
          }
        }
      }
    }
    node_def {
      name: "OptimizeDataset/Log1p_1"
      op: "Log1p"
      input: "OptimizeDataset/Log1p_1/x:output:0"
      device: "/device:CPU:0"
      attr {
        key: "T"
        value {
          type: DT_DOUBLE
        }
      }
    }
    node_def {
      name: "OptimizeDataset/TensorSliceDataset"
      op: "TensorSliceDataset"
      input: "OptimizeDataset/Log1p:y:0"
      input: "OptimizeDataset/Log1p_1:y:0"
      device: "/device:CPU:0"
      attr {
        key: "Toutput_types"
        value {
          list {
            type: DT_DOUBLE
            type: DT_DOUBLE
          }
        }
      }
      attr {
        key: "output_shapes"
        value {
          list {
            shape {
              dim {
                size: 13
              }
            }
            shape {
            }
          }
        }
      }
    }
    node_def {
      name: "OptimizeDataset/buffer_size"
      op: "Const"
      device: "/device:CPU:0"
      attr {
        key: "dtype"
        value {
          type: DT_INT64
        }
      }
      attr {
        key: "value"
        value {
          tensor {
            dtype: DT_INT64
            tensor_shape {
            }
            int64_val: 320
          }
        }
      }
    }
    node_def {
      name: "OptimizeDataset/seed"
      op: "Const"
      device: "/device:CPU:0"
      attr {
        key: "dtype"
        value {
          type: DT_INT64
        }
      }
      attr {
        key: "value"
        value {
          tensor {
            dtype: DT_INT64
            tensor_shape {
            }
            int64_val: 87654321
          }
        }
      }
    }
    node_def {
      name: "OptimizeDataset/seed_1"
      op: "Const"
      device: "/device:CPU:0"
      attr {
        key: "dtype"
        value {
          type: DT_INT64
        }
      }
      attr {
        key: "value"
        value {
          tensor {
            dtype: DT_INT64
            tensor_shape {
            }
            int64_val: 87654321
          }
        }
      }
    }
    node_def {
      name: "OptimizeDataset/seed2/Equal/y"
      op: "Const"
      device: "/device:CPU:0"
      attr {
        key: "dtype"
        value {
          type: DT_INT64
        }
      }
      attr {
        key: "value"
        value {
          tensor {
            dtype: DT_INT64
            tensor_shape {
            }
            int64_val: 0
          }
        }
      }
    }
    node_def {
      name: "OptimizeDataset/seed2/Equal"
      op: "Equal"
      input: "OptimizeDataset/seed_1:output:0"
      input: "OptimizeDataset/seed2/Equal/y:output:0"
      device: "/device:CPU:0"
      attr {
        key: "T"
        value {
          type: DT_INT64
        }
      }
    }
    node_def {
      name: "OptimizeDataset/seed2/Const"
      op: "Const"
      device: "/device:CPU:0"
      attr {
        key: "dtype"
        value {
          type: DT_INT64
        }
      }
      attr {
        key: "value"
        value {
          tensor {
            dtype: DT_INT64
            tensor_shape {
            }
            int64_val: 42
          }
        }
      }
    }
    node_def {
      name: "OptimizeDataset/seed2/Equal_1/y"
      op: "Const"
      device: "/device:CPU:0"
      attr {
        key: "dtype"
        value {
          type: DT_INT64
        }
      }
      attr {
        key: "value"
        value {
          tensor {
            dtype: DT_INT64
            tensor_shape {
            }
            int64_val: 0
          }
        }
      }
    }
    node_def {
      name: "OptimizeDataset/seed2/Equal_1"
      op: "Equal"
      input: "OptimizeDataset/seed2/Const:output:0"
      input: "OptimizeDataset/seed2/Equal_1/y:output:0"
      device: "/device:CPU:0"
      attr {
        key: "T"
        value {
          type: DT_INT64
        }
      }
    }
    node_def {
      name: "OptimizeDataset/seed2/LogicalAnd"
      op: "LogicalAnd"
      input: "OptimizeDataset/seed2/Equal:z:0"
      input: "OptimizeDataset/seed2/Equal_1:z:0"
      device: "/device:CPU:0"
    }
    node_def {
      name: "OptimizeDataset/seed2/Const_1"
      op: "Const"
      device: "/device:CPU:0"
      attr {
        key: "dtype"
        value {
          type: DT_INT64
        }
      }
      attr {
        key: "value"
        value {
          tensor {
            dtype: DT_INT64
            tensor_shape {
            }
            int64_val: 2147483647
          }
        }
      }
    }
    node_def {
      name: "OptimizeDataset/seed2/Const_2"
      op: "Const"
      device: "/device:CPU:0"
      attr {
        key: "dtype"
        value {
          type: DT_INT64
        }
      }
      attr {
        key: "value"
        value {
          tensor {
            dtype: DT_INT64
            tensor_shape {
            }
            int64_val: 42
          }
        }
      }
    }
    node_def {
      name: "OptimizeDataset/seed2"
      op: "Select"
      input: "OptimizeDataset/seed2/LogicalAnd:z:0"
      input: "OptimizeDataset/seed2/Const_1:output:0"
      input: "OptimizeDataset/seed2/Const_2:output:0"
      device: "/device:CPU:0"
      attr {
        key: "T"
        value {
          type: DT_INT64
        }
      }
    }
    node_def {
      name: "OptimizeDataset/ShuffleDataset"
      op: "ShuffleDataset"
      input: "OptimizeDataset/TensorSliceDataset:handle:0"
      input: "OptimizeDataset/buffer_size:output:0"
      input: "OptimizeDataset/seed:output:0"
      input: "OptimizeDataset/seed2:output:0"
      device: "/device:CPU:0"
      attr {
        key: "output_shapes"
        value {
          list {
            shape {
              dim {
                size: 13
              }
            }
            shape {
            }
          }
        }
      }
      attr {
        key: "output_types"
        value {
          list {
            type: DT_DOUBLE
            type: DT_DOUBLE
          }
        }
      }
      attr {
        key: "reshuffle_each_iteration"
        value {
          b: true
        }
      }
    }
    node_def {
      name: "OptimizeDataset/count"
      op: "Const"
      device: "/device:CPU:0"
      attr {
        key: "dtype"
        value {
          type: DT_INT64
        }
      }
      attr {
        key: "value"
        value {
          tensor {
            dtype: DT_INT64
            tensor_shape {
            }
            int64_val: -1
          }
        }
      }
    }
    node_def {
      name: "OptimizeDataset/RepeatDataset"
      op: "RepeatDataset"
      input: "OptimizeDataset/ShuffleDataset:handle:0"
      input: "OptimizeDataset/count:output:0"
      device: "/device:CPU:0"
      attr {
        key: "output_shapes"
        value {
          list {
            shape {
              dim {
                size: 13
              }
            }
            shape {
            }
          }
        }
      }
      attr {
        key: "output_types"
        value {
          list {
            type: DT_DOUBLE
            type: DT_DOUBLE
          }
        }
      }
    }
    node_def {
      name: "OptimizeDataset/batch_size"
      op: "Const"
      device: "/device:CPU:0"
      attr {
        key: "dtype"
        value {
          type: DT_INT64
        }
      }
      attr {
        key: "value"
        value {
          tensor {
            dtype: DT_INT64
            tensor_shape {
            }
            int64_val: 32
          }
        }
      }
    }
    node_def {
      name: "OptimizeDataset/drop_remainder"
      op: "Const"
      device: "/device:CPU:0"
      attr {
        key: "dtype"
        value {
          type: DT_BOOL
        }
      }
      attr {
        key: "value"
        value {
          tensor {
            dtype: DT_BOOL
            tensor_shape {
            }
            bool_val: false
          }
        }
      }
    }
    node_def {
      name: "OptimizeDataset/BatchDatasetV2"
      op: "BatchDatasetV2"
      input: "OptimizeDataset/RepeatDataset:handle:0"
      input: "OptimizeDataset/batch_size:output:0"
      input: "OptimizeDataset/drop_remainder:output:0"
      device: "/device:CPU:0"
      attr {
        key: "output_shapes"
        value {
          list {
            shape {
              dim {
                size: -1
              }
              dim {
                size: 13
              }
            }
            shape {
              dim {
                size: -1
              }
            }
          }
        }
      }
      attr {
        key: "output_types"
        value {
          list {
            type: DT_DOUBLE
            type: DT_DOUBLE
          }
        }
      }
      attr {
        key: "parallel_copy"
        value {
          b: false
        }
      }
    }
    node_def {
      name: "OptimizeDataset"
      op: "OptimizeDataset"
      input: "OptimizeDataset/BatchDatasetV2:handle:0"
      input: "optimizations:output:0"
      device: "/device:CPU:0"
      attr {
        key: "optimization_configs"
        value {
          list {
            s: "map_vectorization:use_choose_fastest:false"
          }
        }
      }
      attr {
        key: "output_shapes"
        value {
          list {
            shape {
              dim {
                size: -1
              }
              dim {
                size: 13
              }
            }
            shape {
              dim {
                size: -1
              }
            }
          }
        }
      }
      attr {
        key: "output_types"
        value {
          list {
            type: DT_DOUBLE
            type: DT_DOUBLE
          }
        }
      }
    }
    node_def {
      name: "ModelDataset"
      op: "ModelDataset"
      input: "OptimizeDataset:handle:0"
      device: "/device:CPU:0"
      attr {
        key: "cpu_budget"
        value {
          i: 0
        }
      }
      attr {
        key: "output_shapes"
        value {
          list {
            shape {
              dim {
                size: -1
              }
              dim {
                size: 13
              }
            }
            shape {
              dim {
                size: -1
              }
            }
          }
        }
      }
      attr {
        key: "output_types"
        value {
          list {
            type: DT_DOUBLE
            type: DT_DOUBLE
          }
        }
      }
    }
    ret {
      key: "modeldataset"
      value: "ModelDataset:handle:0"
    }
    attr {
      key: "_disable_call_shape_inference"
      value {
        b: true
      }
    }
  }
}
versions {
  producer: 38
  min_consumer: 12
}
